dqn_curriculum.pth (torch, 72270 bytes, 6 tensors)

fc1.weight f4 [128, 4]
-0.0387072 -0.24638857 0.095103346 0.1478775 -0.36239922 -0.08204876 -1.475422 0.21152484
-0.31170878 0.07945529 0.90789646 0.24233708 0.09747472 -0.13404861 -0.050498143 -0.10789498
0.25504997 -0.5848023 1.7469984 -0.4680197 0.6151764 0.31821227 1.2139019 0.42980528
0.20503932 -0.07159857 1.9307005 0.024263276 0.48568767 -0.36140412 1.7588409 -0.009721232
0.05479587 0.13179806 1.4588975 0.53421515 -0.013058357 -0.2534881 -0.0997009 -0.22393122
0.8092756 -0.15633284 -1.0588628 0.55849046 -0.038311202 0.02415199 -0.98019505 -0.053925376
-0.026053805 -0.4098994 -0.45974675 0.5202644 0.0067095673 -0.020004448 -1.3774605 -0.08147104
-0.004369749 0.13537784 1.329467 0.2894826 0.30282244 0.21302472 0.2811832 -0.1897127
-0.11720956 -0.0055178464 -0.25013545 -0.1511417 0.007994127 0.1462879 0.14863312 -0.09122129
0.6954641 0.25366 0.022243185 0.63463724 0.2237006 -0.02616368 0.3942994 0.017955728
0.83689475 -0.3233433 -0.3726434 -0.3552194 -0.21764088 -0.022915864 1.6199111 0.23193415
-0.12351357 0.066955574 -1.4226091 0.062855355 0.0864352 -0.07561795 -1.1627114 -0.2892629
-0.41092882 0.19693527 0.44827327 0.20801246 -0.6419295 -0.37861544 0.2432886 0.1908673
0.64301205 -0.1643476 0.9690756 0.06979907 -0.11295536 0.1632449 1.2452428 0.5581804
-0.26293886 -0.3034715 -0.9145513 -0.48674667 -0.3197136 -0.23861277 -0.9001297 0.22301246
0.080414526 -0.25800154 1.1254767 -0.54056007 0.20622931 -0.16263488 -0.65881044 -0.25540558
-0.094536155 0.044533942 -1.3733605 -0.11765419 -0.2722856 0.0265976 1.7780279 0.24781746
-0.25336263 0.17490043 1.0317483 0.057673022 0.035463486 0.056348294 0.23313756 0.07887677
-0.46489078 -0.3453934 0.34853062 -0.26556784 0.28512752 -0.05016375 -1.2856494 -0.5081146
-0.4912132 0.15088183 0.83159584 0.029804928 -0.7502928 -0.015449147 1.2051997 -0.26926303
0.16419448 -0.03960067 -2.0248408 -0.38128003 0.3953332 -0.23811492 -0.80467105 -0.5262678
0.5529227 -0.15958117 0.90228605 -0.3356244 0.26333997 0.026915226 -0.29281977 -0.101167835
-0.12906063 0.025755042 0.067179054 -0.12152935 0.094359934 0.23149402 0.7929579 0.28199953
-0.2623457 -0.22958203 0.894035 0.37954232 0.42044628 0.43650082 1.3843286 0.76547796
0.8274723 -0.33067667 0.17274107 -0.07330446 0.058336325 -0.2454456 -0.21711498 -0.7238688
0.12315525 0.18626636 -0.976899 -0.4216242 -0.20343727 -0.019598627 1.3966451 0.20615305
0.1089442 0.43447432 0.25978607 0.192557 -0.2989026 0.5323031 0.28386813 -0.009163256
0.35046703 0.11130747 -0.2160719 0.13116239 -0.15871617 0.005809259 -1.5414294 -0.1203831
0.07097728 -0.25594598 -0.5626976 -0.30970138 -0.39507574 -0.23254624 -1.0997885 -0.09570007
0.2689356 0.4968814 0.64758193 0.24926344 0.6263942 -0.15356259 0.9010653 -0.12836033
0.12631248 -0.050851338 -2.0899088 -0.38569397 -0.1369999 0.21548213 0.03766466 -0.14709862
0.40222704 0.5707162 -0.093281485 0.07057358 -0.4729681 0.30467984 -0.124761365 0.4319114
00000000: 718b 1ebd 494d 7cbe 8bc5 c23d 336d 173e
00000010: 648c b9be 2e09 a8bd a1da bcbf f899 583e
00000020: 4b98 9fbe 75b9 a23d e76b 683f 3627 783e
00000030: d3a0 c73d 0a44 09be 24d7 4ebd 0bf8 dcbd
00000040: e995 823e 9bb5 15bf a59d df3f 47a0 efbe
00000050: 337c 1d3f b8ec a23e 2361 9b3f 700f dc3e
00000060: d4f5 513e 45a2 92bd 3221 f73f c7c3 c63c
00000070: 0eac f83e f609 b9be b321 e13f cd45 1fbc
00000080: a271 603d 12f6 063e 27bd ba3f 53c2 083f
00000090: b8f2 55bc 31c9 81be fc2f ccbd 3a4e 65be
000000a0: b02c 4f3f b715 20be d188 87bf 3bf9 0e3f
000000b0: 35ec 1cbd 65da c53c 10ee 7abf dbe0 5cbd
000000c0: ca6e d5bc 56de d1be ed63 ebbe 0c30 053f
000000d0: eedb db3b 5ee0 a3bc a050 b0bf 4ada a6bd
000000e0: 1d30 8fbb 7da0 0a3e fa2b aa3f 1037 943e
000000f0: 8b0b 9b3e 2723 5a3e 3ff7 8f3e 0c44 42be
00000100: 910b f0bd 0dcf b4bb c111 80be e4c4 1abe
00000110: cdf9 023c 7fcc 153e 4833 183e 3ad2 babd
00000120: ef09 323f b9df 813e 5737 b63c 9677 223f
00000130: c511 653e 3755 d6bc 9ce1 c93e e417 933c
00000140: bc3e 563f 418d a5be 1ecb bebe 51df b5be
00000150: 40dd 5ebe 0dba bbbc 3f59 cf3f 2580 6d3e
00000160: aff4 fcbd 0120 893d 0e18 b6bf 4fba 803d
00000170: f004 b13d 95dd 9abd bad3 94bf 441a 94be
00000180: 4365 d2be 66a9 493e 1384 e53e 3801 553e
00000190: 7e55 24bf e2d9 c1be a620 793e b872 433e
000001a0: 709c 243f bd4a 28be 5715 783f d1f2 8e3d
000001b0: 2455 e7bd ac29 273e 1e64 9f3f e9e4 0e3f
000001c0: ec9f 86be 9e60 9bbe 0920 6abf dc36 f9be
000001d0: 80b1 a3be e856 74be e66e 66bf 615d 643e
000001e0: 5fb0 a43d c718 84be 9f0f 903f 2562 0abf
000001f0: c72d 533e c289 26be cda7 28bf 85c4 82be
00000200: 2c9c c1bd 3969 363d 47ca afbf aef4 f0bd
00000210: 0569 8bbe 36e3 d93c 6b96 e33f dcc3 7d3e
00000220: bfb8 81be 1919 333e 5410 843f 8c3a 6c3d
00000230: 2942 113d 78cd 663d 9dbb 6e3e 258a a13d
00000240: 2a06 eebe 67d7 b0be 9b72 b23e 82f8 87be
00000250: 3cfc 913e 8178 4dbd 2990 a4bf cc13 02bf
00000260: 4c80 fbbe c480 1a3e 77e3 543f 7729 f43c
00000270: 3013 40bf 6b1e 7dbc fc43 9a3f d8dc 89be
00000280: 9922 283e 5034 22bd fe96 01c0 2337 c3be
00000290: 1d69 ca3e 66d4 73be ecfe 4dbf 7db9 06bf
000002a0: 588c 0d3f 3f69 23be 38fc 663f f6d6 abbe
000002b0: 7fd4 863e 527d dc3c 79ec 95be 1531 cfbd
000002c0: 7828 04be 3dfc d23c 2c95 893d 61e4 f8bd
000002d0: c83f c13d c50c 6d3e 4aff 4a3f 3e62 903e
000002e0: 2d52 86be 8d17 6bbe 7adf 643f 5f53 c23e
000002f0: bc44 d73e 097d df3e ae31 b13f 5df6 433f
00000300: 3ad5 533f 744e a9be 09e3 303e a620 96bd
00000310: 12f2 6e3d 1756 7bbe 6453 5ebe 774f 39bf
00000320: d238 fc3d 9cbc 3e3e 0e16 7abf 21df d7be
00000330: dc51 50be 4d8d a0bc 44c5 b23f c919 533e
00000340: 231e df3d 6b73 de3e ae02 853e aa2d 453e
00000350: c309 99be 0445 083f 2a57 913e 7b21 16bc
00000360: 6a70 b33e 2cf5 e33d f441 5dbe 6f4f 063e
00000370: 7e86 22be 995b be3b 8f4d c5bf 6a8b f6bd
00000380: 895c 913d 5a0b 83be f30c 10bf 2e91 9ebe
00000390: 5e47 cabe 9a20 6ebe dfc5 8cbf 66fe c3bd
000003a0: edb1 893e 3d67 fe3e eec7 253f ea3e 7f3e
000003b0: 5f5b 203f 833f 1dbe 37ac 663f e470 03be
000003c0: 0f58 013e 7e49 50bd 11c1 05c0 ae79 c5be
000003d0: b449 0cbe 59a7 5c3e 4246 1a3d 05a1 16be
000003e0: b4f0 cd3e 751a 123f 5d0a bfbd e288 903d
000003f0: e028 f2be fffe 9b3e e382 ffbd 7e23 dd3e

fc1.bias f4 [128]
0.3098914 -0.42909792 -0.1539141 0.32507914 -0.4481558 -0.26866853 -0.16498707 -0.35336456
-0.25574857 0.41730794 0.20263468 0.121907905 -0.15991901 0.15845378 -0.22718106 -0.4716759
0.78430504 0.55162686 -0.20595902 0.21965596 -0.12370933 -0.26781702 -0.16093451 -0.052952975
0.1621767 -0.5196342 -0.013374172 -0.21762379 -0.24378327 -0.6299567 -0.6315372 0.8093644
-0.161245 -0.287256 -0.07268605 0.27382517 -0.11788799 -0.36444157 0.044814058 -0.24696209
-0.34677392 0.44278803 -0.45439526 0.6173599 -0.34182307 -0.21754326 -0.62443787 -0.21643203
-0.46540263 0.32472324 -0.7112174 -0.26712453 0.4387982 -0.35062128 -0.7082811 0.1117098
-0.09760838 -0.039855234 0.41854346 -0.036998805 -0.22535874 0.6801776 -0.35342103 0.2626261
0.40531135 -0.00895364 -0.4890173 -0.25833094 -0.25899726 -0.114543915 -0.27213076 0.014415824
-0.19497305 -0.28866908 -0.71392876 -0.34849656 0.5416591 -0.02077411 -0.20845342 -0.67506135
-0.29472527 -0.31121618 -0.3166633 -0.25731155 0.06316164 -0.60744286 -0.26932293 -0.13833703
-0.31711635 0.0038980043 -0.2916605 0.4118771 -0.22465003 -0.104287714 0.28659248 -0.3987709
-0.29932722 0.57251996 0.3381719 -0.26760364 0.37884632 0.6851661 -0.49157304 -0.38310602
-0.013119802 -0.31546485 -0.6922536 -0.46984452 -0.44330007 0.40831548 0.20505686 -0.61006224
-0.17952426 0.5517546 -0.20220853 -0.4171244 -0.06869688 -0.6532326 -0.24901488 0.08607794
-0.48996025 0.23407005 -0.60950905 0.62983644 -0.25442687 -0.23306352 -0.31708133 -0.33668748
00000000: 16aa 9e3e b9b2 dbbe a89b 1dbe c670 a63e
00000010: ad74 e5be ec8e 89be 5ff2 28be 33ec b4be
00000020: 7af1 82be 63a9 d53e 777f 4f3e daaa f93d
00000030: cfc1 23be b541 223e 27a2 68be 817f f1be
00000040: 37c8 483f 6b37 0d3f ece6 52be 7eed 603e
00000050: 515b fdbd 501f 89be 04cc 24be 38e5 58bd
00000060: a611 263e bf06 05bf 581f 5bbc c5d8 5ebe
00000070: 52a2 79be d844 21bf 6cac 21bf 8132 4f3f
00000080: 691d 25be 3813 93be 6cdc 94bd d032 8c3e
00000090: 426f f1bd 1698 babe f28e 373d a1e3 7cbe
000000a0: 5a8c b1be 1db5 e23e 7fa6 e8be 4c0b 1e3f
000000b0: 6f03 afbe a9c3 5ebe 29db 1fbf 5ca0 5dbe
000000c0: 4149 eebe 2042 a63e 5812 36bf 8cc4 88be
000000d0: 28aa e03e a284 b3be e951 35bf 1cc8 e43d
000000e0: e7e6 c7bd 3e3f 23bd 544b d63e 0f8c 17bd
000000f0: 71c4 66be 1f20 2e3f 9af3 b4be ee76 863e
00000100: f884 cf3e 4ab2 12bc 7a60 fabe f443 84be
00000110: 4a9b 84be 0096 eabd b954 8bbe 5930 6c3c
00000120: 04a7 47be 6fcc 93be 09c4 36bf 246e b2be
00000130: 2caa 0a3f 772e aabc d074 55be d2d0 2cbf
00000140: 3be6 96be ba57 9fbe b121 a2be 57be 83be
00000150: e45a 813d 6081 1bbf b2e4 89be 39a8 0dbe
00000160: 135d a2be a975 7f3b 8654 95be 8ee1 d23e
00000170: a80a 66be cc94 d5bd 40bc 923e b32b ccbe
00000180: 6b41 99be ab90 123f de24 ad3e 5803 89be
00000190: 25f8 c13e 0c67 2f3f 76af fbbe 7926 c4be
000001a0: 70f4 56bc 9c84 a1be 8837 31bf 768f f0be
000001b0: 3af8 e2be ba0e d13e 6dfa 513e 0a2d 1cbf
000001c0: 35d5 37be ca3f 0d3f c10f 4fbe 5491 d5be
000001d0: f3b0 8cbd 403a 27bf c2fd 7ebe a249 b03d
000001e0: 12dc fabe 0fb0 6f3e c908 1cbf f63c 213f
000001f0: 3d44 82be 34a8 6ebe 7c58 a2be 4d62 acbe

fc2.weight f4 [128, 128]
0.030347943 0.03343594 -0.10561556 -0.056761734 0.005913723 -0.068447664 -0.031919386 0.016541319
-0.07254374 -0.02086829 -0.13144024 -0.1075965 -0.0057188333 -0.11177022 -0.07592434 0.024491033
-0.06870206 -0.08937552 0.029052159 -0.13272865 -0.14028688 -0.09257094 -0.048000257 -0.009155414
0.08001434 -0.027163267 -0.12620252 0.012238616 -0.05254003 -0.06295105 -0.012008049 0.0035460857
-0.057568073 -0.029562026 -0.026130034 -0.039302096 -0.05340186 -0.08551493 0.009531683 0.034954228
0.060220536 0.015731135 -0.0038140316 -0.013782499 -0.06803005 -0.029301189 -0.002745703 0.00041832562
-0.1601338 -0.09856779 0.06145198 0.032803647 0.065243326 0.054422393 -0.069123924 -0.026523404
-0.113683596 -0.0347795 -0.05180774 0.0025336437 -0.0057398695 -0.045649815 -0.043258026 -0.1052716
-0.06241822 -0.027847165 0.07053038 -0.04785127 -0.08618665 -0.10893133 0.013742715 0.028993694
-0.08299924 -0.038333897 0.030516583 -0.12572643 -0.0017495181 -0.034705233 -0.045684505 0.055912234
-0.1382518 0.044053584 0.037466586 -0.0042978656 0.014944884 0.1284256 0.03954749 0.006483402
-0.10404597 -0.14192411 -0.028594043 0.022739088 -0.061309144 0.032521326 -0.011225428 0.0033753586
-0.12248783 0.048343085 -0.08396101 0.009622741 -0.07640683 0.011230018 0.04451758 -0.0044563753
-0.073751874 0.0038148842 -0.10511891 0.08276077 0.011226536 0.027825177 -0.009448898 -0.09473293
-0.06599169 -0.6037037 0.01943907 0.049468853 0.041215103 -0.020926211 -0.057460185 -0.06771398
0.07347182 -0.12092459 -0.09102344 -0.07087497 -0.12910195 -0.085884 -0.066212654 -0.12098046
0.07151269 -0.11774705 -0.15545923 0.17999177 -0.23108727 0.24733478 -1.3568903 -0.36831456
-0.4032254 0.18373877 -0.3400288 0.11267948 0.10719391 0.18287916 -0.8300817 -0.20524663
0.25246382 0.136197 0.022472272 0.090095475 -0.40956274 -0.5873371 -1.0665737 0.020827677
0.2892451 0.08796436 0.34577203 -0.2681887 0.07674396 -0.17175671 -0.35135674 0.36350897
-0.36792436 -0.962765 -0.19965519 0.14557597 0.018474944 -0.09939358 -0.15493505 -1.0686971
-1.0277474 0.2941126 -0.46834835 0.19315603 -0.3204005 0.26569033 -0.21036062 -0.33035454
-0.80631256 0.15386857 -0.4044028 -1.4826553 0.27395603 0.27339187 -0.10400377 -0.09313151
-0.39635035 0.19961885 0.2811978 -0.053310815 -0.97519356 0.231162 0.17167395 0.19769837
0.2377115 0.2628369 -0.053665914 0.30502445 -1.5753449 0.095724314 -0.12185394 -0.2668659
-1.7714777 0.04783832 -0.41983318 0.30795762 0.12602045 0.12589692 -0.09843328 0.27016336
-0.41847685 -0.005473493 -0.100642696 0.083275706 0.19624308 0.14348955 -0.6182261 0.4371626
-1.9269629 0.25516355 -0.48618296 -0.046380904 -0.04962973 0.3881167 0.08261318 -0.4068567
-0.59170264 0.1731272 0.0885813 0.072225 0.2772432 0.18299101 0.047813915 0.060036737
0.068074994 -0.47047007 -0.74489486 -0.15199688 -0.3244783 0.06980047 -0.0014572182 -0.12928455
0.121242784 0.1293 0.27242976 0.13459387 0.37389135 -0.26969177 0.084169365 -0.27495727
-0.34343043 0.20370527 -0.13231285 0.08343153 -1.0600704 0.017022924 -0.34440982 -0.3099032
00000000: 409c f83c 20f4 083d f94c d8bd fe7e 68bd
00000010: e7c7 c13b 4a2e 8cbd e7bd 02bd a981 873c
00000020: d091 94bd faf3 aabc 4598 06be 8e5b dcbd
00000030: 0d65 bbbb c9e7 e4bd 387e 9bbd 6ba1 c83c
00000040: aab3 8cbd 830a b7bd cbfe ed3c 05ea 07be
00000050: 5da7 0fbe d595 bdbd eb9b 44bd 9700 16bc
00000060: 8fde a33d 8085 debc 3c3b 01be 7a84 483c
00000070: 3734 57bd 7bec 80bd 68bd 44bc 7265 683b
00000080: 80cc 6bbd 102c f2bc a70e d6bc 3cfb 20bd
00000090: e9bb 5abd 7422 afbd c72a 1c3c 2a2c 0f3d
000000a0: cfa9 763d 95de 803c d5f4 79bb fecf 61bc
000000b0: 5753 8bbd 0c09 f0bc 41f1 33bb b752 db39
000000c0: 1dfa 23be e9dd c9bd 12b5 7b3d 1e5d 063d
000000d0: 4b9e 853d 04ea 5e3d d890 8dbd 9c47 d9bc
000000e0: f2d2 e8bd f374 0ebd 5a34 54bd 7d0b 263b
000000f0: 8415 bcbb 4dfb 3abd 542f 31bd a398 d7bd
00000100: 3faa 7fbd bd1f e4bc 3b72 903d b1ff 43bd
00000110: a082 b0bd 6417 dfbd 2029 613c 2f84 ed3c
00000120: 81fb a9bd 0104 1dbd eafd f93c 6ebe 00be
00000130: 1650 e5ba 1327 0ebd ad1f 3bbd 3a04 653d
00000140: e191 0dbe 8871 343d 9076 193d 1cd5 8cbb
00000150: 63db 743c 0082 033e 8dfc 213d b872 d43b
00000160: 0e16 d5bd 8e54 11be 0e3e eabc 5347 ba3c
00000170: 4c1f 7bbd 1535 053d dcea 37bc 1f35 5d3b
00000180: e6da fabd 6603 463d c0f3 abbd b3a8 1d3c
00000190: 2f7b 9cbd 1cfe 373c 1158 363d c906 92bb
000001a0: 390b 97bd 2303 7a3b 9548 d7bd 7b7e a93d
000001b0: 81ef 373c a0f1 e33c 8dcf 1abc 5703 c2bd
000001c0: a726 87bd 538c 1abf af3e 9f3c da9f 4a3d
000001d0: 2bd1 283d 726d abbc 5f5b 6bbd a1ad 8abd
000001e0: 6578 963d 50a7 f7bd 7f6a babd e526 91bd
000001f0: 4d33 04be f3e3 afbd 809a 87bd 9ac4 f7bd
00000200: 3f75 923d 5e25 f1bd b430 1fbe c34f 383e
00000210: 24a2 6cbe 5445 7d3e 95ae adbf ba93 bcbe
00000220: 8f73 cebe 0426 3c3e 4118 aebe 80c4 e63d
00000230: 7b88 db3d ad44 3b3e 3c80 54bf 2c2c 52be
00000240: f042 813e 3a77 0b3e c517 b83c fa83 b83d
00000250: 35b2 d1be b95b 16bf 7d85 88bf ce9e aa3c
00000260: ef17 943e a926 b43d 0809 b13e 0750 89be
00000270: f02b 9d3d fee0 2fbe 08e5 b3be d91d ba3e
00000280: 9560 bcbe c477 76bf 6972 4cbe de11 153e
00000290: c458 973c dc8e cbbd 4ba7 1ebe 11cb 88bf
000002a0: 3a8d 83bf ed95 963e 5bcb efbe b2ca 453e
000002b0: 890b a4be 9008 883e c668 57be 3b24 a9be
000002c0: 806a 4ebf b98f 1d3e e20d cfbe a6c7 bdbf
000002d0: f743 8c3e 05fa 8b3e eeff d4bd bcbb bebd
000002e0: 6fee cabe e268 4c3e 28f9 8f3e 715c 5abd
000002f0: 49a6 79bf bbb5 6c3e 4ccb 2f3e 7171 4a3e
00000300: a56a 733e 8f92 863e cad0 5bbd 2a2c 9c3e
00000310: e7a4 c9bf 1c0b c43d 8f8e f9bd a6a2 88be
00000320: c8bf e2bf 1df2 433d 60f4 d6be 9fac 9d3e
00000330: 810b 013e 1feb 003e 6397 c9bd da52 8a3e
00000340: 9942 d6be fd5a b3bb c21d cebd 748c aa3d
00000350: f2f3 483e edee 123e 1144 1ebf c7d3 df3e
00000360: b8a6 f6bf cca4 823e f9ec f8be e7f9 3dbd
00000370: 8b48 4bbd 3bb7 c63e 1931 a93d 854f d0be
00000380: d379 17bf 4248 313e 1d6a b53d b3ea 933d
00000390: d2f2 8d3e ff61 3b3e 86d8 433d 15e9 753d
000003a0: e76a 8b3d 74e1 f0be 6eb1 3ebf 12a5 1bbe
000003b0: 0522 a6be 8cf3 8e3d 2100 bfba 2b63 04be
000003c0: 234e f83d 3867 043e ea7b 8b3e fad2 093e
000003d0: b06e bf3e 0a15 8abe fd60 ac3d 33c7 8cbe
000003e0: 1dd6 afbe 1d98 503e 057d 07be 26de aa3d
000003f0: 63b0 87bf a973 8b3c 7c56 b0be a2ab 9ebe

fc2.bias f4 [128]
-0.117009215 0.29569057 0.11037079 0.100733295 -0.12180937 -0.12794492 0.12255272 0.6043611
-0.103830494 -0.08549337 -0.09165015 0.07965194 0.18316178 0.44757244 -0.004623083 0.19489
-0.040594 0.2614937 0.36066413 0.53099245 -0.07534119 0.28927186 0.05791861 0.11346131
0.07027367 0.17178181 0.35315523 0.043881956 0.30196944 -0.104270376 -0.016067808 0.37854666
0.45398098 0.023615312 0.08690904 0.00963704 -0.08343974 -0.05520784 -0.000731076 -0.11846144
-0.07175472 0.35279888 -0.027933016 0.09213597 -0.021879656 -0.12120245 0.078681216 0.03477532
0.0010236859 0.16758533 -0.08414325 0.113237746 -0.04540674 0.061087117 -0.06755918 -0.0591628
0.35602844 0.050281424 -0.058511797 0.26158386 0.022343103 0.21077591 0.075271584 -0.052928474
-0.03683064 -0.047366716 0.046067078 0.036227442 0.02641878 0.0046718316 -0.01872412 0.44936526
-0.041445095 0.25158077 0.05229949 0.37956902 0.28340957 -0.015369534 0.3792797 0.1059402
-0.048552208 -0.048703615 0.14206402 -0.01553621 -0.028235193 -0.030114792 0.28635505 -0.01619601
0.37230837 -0.051164392 0.13332517 -0.04118107 0.0064689573 0.010108752 0.47407788 -0.016090864
-0.028272422 -0.12773061 0.24462895 -0.07615369 -0.06288496 0.0012411813 0.2510242 -0.047197934
-0.0870056 -0.10935569 0.39645866 -0.06899178 0.0018070883 -0.07860048 -0.040155657 -0.077556014
0.008263517 -0.041640874 0.1825224 0.46943316 0.022284547 -0.07707432 -0.15886696 0.29875645
-0.071980506 -0.06356624 -0.094414115 0.06571951 0.08639353 -0.053436723 -0.047083605 0.23718384
00000000: 87a2 efbd c164 973e 150a e23d 424d ce3d
00000010: 3177 f9bd fe03 03be ecfc fa3d 69b7 1a3f
00000020: 15a5 d4bd 2617 afbd 13b3 bbbd 8e20 a33d
00000030: c38e 3b3e 3728 e53e 3b7d 97bb 3f91 473e
00000040: e545 26bd 81e2 853e f8a8 b83e 1fef 073f
00000050: 7b4c 9abd 711b 943e 103c 6d3d 675e e83d
00000060: a4eb 8f3d 92e7 2f3e c3d0 b43e 91bd 333d
00000070: bd9b 9a3e b58b d5bd a3a0 83bc ded0 c13e
00000080: 3270 e83e e674 c13c 5efd b13d ade4 1d3c
00000090: 74e2 aabd 9e21 62bd aea5 3fba e99b f2bd
000000a0: 23f4 92bd 0ea2 b43e c8d3 e4bc c9b1 bc3d
000000b0: f73c b3bc fd38 f8bd 9e23 a13d 9170 0e3d
000000c0: 332d 863a 7d9b 2b3e 4c53 acbd 31e9 e73d
000000d0: 6bfc 39bd 7c36 7a3d 785c 8abd b154 72bd
000000e0: 5c49 b63e e5f3 4d3d 11aa 6fbd 52ee 853e
000000f0: e208 b73c a4d5 573e fd27 9a3d 87cb 58bd
00000100: badb 16bd 9a03 42bd d5b0 3c3d 3a63 143d
00000110: 336c d83c 2a16 993b 5363 99bc 3413 e63e
00000120: 55c2 29bd 32cf 803e fd37 563d df56 c23e
00000130: 0f1b 913e 7fd0 7bbc f330 c23e 2df7 d83d
00000140: aede 46bd 717d 47bd 3b79 113e 968b 7ebc
00000150: 7e4d e7bc 4cb3 f6bc 219d 923e 7fad 84bc
00000160: 349f be3e c191 51bd 6586 083e 7bad 28bd
00000170: 8cf9 d33b 2e9f 253c 56ba f23e fdd0 83bc
00000180: 919b e7bc d0cb 02be 0380 7a3e 77f6 9bbd
00000190: d4c9 80bd 22af a23a 3e86 803e 9f52 41bd
000001a0: fe2f b2bd e0f5 dfbd a1fc ca3e 904b 8dbd
000001b0: d2db ec3a 4af9 a0bd 427a 24bd b0d5 9ebd
000001c0: b463 073c 9f8f 2abd 27e7 3a3e 8b59 f03e
000001d0: 158e b63c 24d9 9dbd 05ae 22be 9bf6 983e
000001e0: 846a 93bd 042f 82bd 305c c1bd f397 863d
000001f0: 17ef b03d 77e0 5abd bdda 40bd 52e0 723e

fc3.weight f4 [2, 128]
-0.028619524 0.2776955 0.12475491 0.59101 0.0006199411 0.02665844 -0.013872151 1.2716062
-0.00059488026 -0.012206861 0.010772765 -0.0012243175 -0.7286378 1.1723338 0.036049288 -0.15645182
0.0033909897 -0.22812079 -0.113612175 1.3341029 0.004216868 0.51203835 0.02231462 0.4992876
0.0010338515 0.46513507 0.24553691 -0.008564167 0.49106 0.00012652925 0.0015839456 0.6257741
1.0064273 0.88727194 0.8291601 -0.05501715 0.024658939 -0.029695721 -0.020375924 -0.034412343
-0.0009393238 -1.3206992 0.018779926 -0.30765486 -0.0011600713 -0.047731616 0.35350195 0.032342214
0.016460741 -1.2891108 0.08055246 2.0575364 -0.06409891 0.020118097 0.01189969 -0.0009003232
0.57469827 0.2129959 0.010381629 0.5017817 -1.5522363 0.6788829 -0.18112369 -0.009684051
-0.0029814884 0.027476618 0.0058070347 0.0015979187 -0.041291773 0.023163822 -0.016758582 0.9455523
-0.014659285 0.39248535 -0.0067393677 0.6838196 0.17794003 -0.021269767 0.5224359 -0.046890546
0.0029268423 -0.026329972 0.6524827 0.027313894 0.04089295 0.037602283 0.3041678 0.018646523
1.0841582 0.001006984 -0.22151144 0.004308487 -0.019651275 -0.05033219 0.69738007 0.023553455
-0.0023489166 -0.0036483882 0.7168753 -0.0017026779 -0.010685527 -0.0015409295 0.824992 0.0010178551
-0.010623363 0.019160831 -0.45657355 0.062990874 -0.00039738556 0.0076358537 0.06840405 -0.029667424
1.2943014 -0.02695996 0.70019823 1.6107994 0.0496886 -0.031245895 -0.022092266 0.7688561
-0.0002960013 -0.024627486 -0.016927376 0.06328249 1.0983249 -0.0043408894 -0.013968032 0.22958961
0.029527245 0.5539346 0.6263684 -0.03518422 -0.0020953775 -0.0057017044 0.03155607 1.2020624
0.014487802 -0.01896599 -0.06619248 0.0018108434 0.8597268 1.1010073 -0.01092715 0.8337437
-0.0066662454 0.7388389 1.0485154 1.4951748 -0.0071016396 0.283376 0.05385551 -0.026217572
0.0021979215 -0.037621755 1.3599644 0.003761231 0.059979413 -0.00042331577 -0.0018246344 0.08402824
1.4036453 0.93483156 -1.3597852 -0.015107339 -0.026103616 -0.028960446 -0.03469697 -0.09318479
0.00034581142 1.2401519 -0.013022629 -0.2785186 -0.0047855615 -0.030868167 -1.0470215 -0.06852585
0.026634028 -1.983174 -0.044697125 -0.30170694 -0.026673656 0.0014807982 -0.012444368 -0.0047178655
0.21712433 -0.4143103 -0.006259897 0.71567106 0.606207 -0.51234967 -0.9513505 0.035596862
-0.051403716 -0.067639895 -0.013140688 0.008444143 0.0094694905 -0.025183707 -0.017476553 1.0525208
0.010834135 0.20002702 0.007983181 0.23814616 0.5759419 -0.008378685 1.1723124 0.07130199
0.0030005374 -0.079694435 0.75206655 -0.01636832 -0.042533305 -0.0319772 0.46397218 -0.014462499
0.028005172 0.018656673 0.7367648 0.002046142 0.011357037 -0.006206261 0.7781993 -0.015303523
0.001574627 0.009866484 -0.15147397 -0.01155562 -0.01237413 0.007378985 -0.41572067 -0.00055398844
-0.0054392177 -0.020484181 1.3567263 0.02536979 -0.006772662 -0.019462675 -0.010608727 0.030776288
-0.30162996 0.017090986 -0.053185415 0.3947989 -0.038268156 -0.05489981 -0.027692204 0.15122718
0.004070332 -0.090232745 -0.02187298 0.021901103 0.24129555 0.011442598 0.011468989 0.27700385
00000000: 7e73 eabc 1b2e 8e3e 817f ff3d 6e4c 173f
00000010: 8b83 223a cd62 da3c 0548 63bc fec3 a23f
00000020: bdf1 1bba 49ff 47bc 4080 303c 4779 a0ba
00000030: 0288 3abf 090f 963f 6ba8 133d e834 20be
00000040: 5e3b 5e3b 7f98 69be 80ad e8bd e2c3 aa3f
00000050: a72d 8a3b f214 033f 26cd b63c a0a2 ff3e
00000060: 4d82 873a 2f26 ee3e 076e 7b3e b850 0cbc
00000070: 376c fb3e f0ac 0439 659c cf3a bb32 203f
00000080: 9cd2 803f 4124 633f d643 543f aa59 61bd
00000090: 8b01 ca3c 7144 f3bc 69eb a6bc f5f3 0cbd
000000a0: f43c 76ba ac0c a9bf 5cd8 993c f084 9dbe
000000b0: 890d 98ba 3a82 43bd 35fe b43e 4579 043d
000000c0: add8 863c 9501 a5bf b0f8 a43d adae 0340
000000d0: 4a46 83bd b5ce a43c ebf6 423c ab03 6cba
000000e0: 6d1f 133f 991b 5a3e b517 2a3c c474 003f
000000f0: aeaf c6bf 45cb 2d3f 7d78 39be dba9 1ebc
00000100: 1365 43bb a516 e13c f048 be3b 4171 d13a
00000110: 9021 29bd 0ec2 bd3c 4b49 89bc b70f 723f
00000120: 7f2d 70bc d7f3 c83e ead5 dcbb cd0e 2f3f
00000130: e935 363e ef3d aebc 5cbe 053f 4d10 40bd
00000140: 44d0 3f3b f4b1 d7bc 1b09 273f 63c1 df3c
00000150: 5e7f 273d da04 1a3d e2bb 9b3e 98c0 983c
00000160: b2c5 8a3f c7fc 833a e5d3 62be 352e 8d3b
00000170: b6fb a0bc 2029 4ebd 8087 323f 2df3 c03c
00000180: 48f0 19bb cc19 6fbb 2485 373f 642c dfba
00000190: 5912 2fbc 04f9 c9ba ad32 533f 8d69 853a
000001a0: 9d0d 2ebc 2df7 9c3c 02c4 e9be 5c01 813d
000001b0: 3058 d0b9 2f36 fa3b 6c17 8c3d 1909 f3bc
000001c0: abab a53f 22db dcbc 3140 333f ad2e ce3f
000001d0: 4686 4b3d 64f7 ffbc d7fa b4bc c1d3 443f
000001e0: 9f30 9bb9 95bf c9bc 48ab 8abc 409a 813d
000001f0: e995 8c3f 053e 8ebb 2cda 64bc 8a19 6b3e
00000200: 1fe3 f13c a8ce 0d3f ae59 203f 541d 10bd
00000210: 9a52 09bb 5dd5 babb f040 013d 2edd 993f
00000220: 3f5e 6d3c 905e 9bbc ec8f 87bd d259 ed3a
00000230: 0e17 5c3f cfed 8c3f ca07 33bc 3a70 553f
00000240: 8570 dabb 8c24 3d3f c135 863f e361 bf3f
00000250: dfb4 e8bb a916 913e 9897 5c3d 3cc6 d6bc
00000260: 010b 103b 4519 1abd 5013 ae3f fc7e 763b
00000270: f9ac 753d 7bf0 ddb9 9228 efba ff16 ac3d
00000280: a6aa b33f 1f51 6f3f 710d aebf c684 77bc
00000290: 40d7 d5bc 753e edbc 691e 0ebd abd7 bebd
000002a0: 064e b539 4cbd 9e3f dd5c 55bc fd99 8ebe
000002b0: 33d0 9cbb 3ddf fcbc cd04 86bf 4857 8cbd
000002c0: 9b2f da3c a5d8 fdbf 5514 37bd 5579 9abe
000002d0: b682 dabc 5817 c23a 76e3 4bbc 5398 9abb
000002e0: d755 5e3e 7b20 d4be d21f cdbb 3836 373f
000002f0: 6230 1b3f 5929 03bf b58b 73bf 04ce 113d
00000300: b48c 52bd c986 8abd 0a4c 57bc 4e59 0a3c
00000310: ec25 1b3c 104e cebc fd2a 8fbc 00b9 863f
00000320: a881 313c e2d3 4c3e e3cb 023c 96dc 733e
00000330: ee70 133f c146 09bc 550e 963f c706 923d
00000340: aaa4 443b d636 a3bd 6f87 403f db16 86bc
00000350: 6737 2ebd 86fa 02bd c38d ed3e 1ef4 6cbc
00000360: 1a6b e53c e1d5 983c 9e9c 3c3f 9118 063b
00000370: de12 3a3c e45d cbbb 1238 473f a1bb 7abc
00000380: b763 ce3a 09a7 213c fe1b 1bbe c853 3dbc
00000390: ddbc 4abc 6acb f13b 57d9 d4be 8939 11ba
000003a0: 773b b2bb 71ce a7bc 35a9 ad3f 4ed4 cf3c
000003b0: 35ed ddbb 3070 9fbc 3ad0 2dbc 8e1e fc3c
000003c0: 3e6f 9abe 6502 8c3c f3d8 59bd 1523 ca3e
000003d0: 12bf 1cbd a0de 60bd c3da e2bc 4cdb 1a3e
000003e0: 6b60 853b f2cb b8bd f72e b3bc f169 b33c
000003f0: 2e16 773e bc79 3b3c 6de8 3b3c 73d3 8d3e

fc3.bias f4 [2]
-0.0003139886 -0.0003451535
00000000: d69e a4b9 b8f5 b4b9
