dqn_double.pth (torch, 72230 bytes, 6 tensors)

fc1.weight f4 [128, 4]
000000 2a e7 a3 3e 13 64 78 be 3e cd 06 bd d5 e3 18 3e
       0.32012302 -0.24256925 -0.032910578 0.14930661
000010 98 ae f5 be a0 ea 21 be e7 6a 29 3f 8c a5 84 3e
       -0.47984767 -0.15812159 0.66178745 0.25907552
000020 cd 4e 24 bd 14 59 23 3e ed 57 9b 3e 77 c0 6c 3e
       -0.040114213 0.1595195 0.3034052 0.23120295
000030 79 fe 2d be 8c bf 9d be e2 51 03 be 43 76 84 be
       -0.16991605 -0.308102 -0.12824205 -0.25871477
000040 a5 8c 93 3e 34 ba 00 bf 13 6c 05 40 47 2d ca be
       0.2881824 -0.50284123 2.0847213 -0.3948767
000050 46 4c 24 3f 8f 3a 2a be 7b 53 c5 bf f9 80 25 3f
       0.64178884 -0.16623901 -1.5416101 0.6464992
000060 02 cd 2a 3e 25 25 a0 3d 74 8d e3 3f 9d 93 c7 3e
       0.16679767 0.07819585 1.7777543 0.38979807
000070 9e ca 5a 3e b4 54 c4 bd b5 9c 0b 40 25 1f 1f 3e
       0.21366355 -0.09586468 2.1814396 0.15539224
000080 67 18 1a be d8 80 90 3e 0b 28 c3 3f 09 17 4a 3f
       -0.15048371 0.282233 1.5246595 0.789414
000090 32 1b 0f bd 4d a7 4f be 03 17 72 be db ad 03 bf
       -0.034938045 -0.20278664 -0.23641591 -0.5143716
0000a0 36 30 f8 3e 31 50 07 3e 9e b7 1a bf a3 e2 05 3f
       0.48474282 0.13214184 -0.6043643 0.52298945
0000b0 b3 8e c7 3e af 23 60 3e fb 3e 2d bf d4 66 3e 3e
       0.38976058 0.21888612 -0.67674226 0.18593913
0000c0 17 c2 61 be 33 0d 82 be cc 82 29 bf 01 f9 b7 3e
       -0.22046696 -0.25400695 -0.66215205 0.35932162
0000d0 20 2d 70 3e 70 e2 b2 bd 31 8c ff 3b 5b dd e9 3c
       0.23454714 -0.08734596 0.0077986945 0.028547933
0000e0 d6 7c ce be 3a 5b 38 bd f7 3f c6 3f 4a 1f 30 3e
       -0.40329617 -0.045008875 1.548827 0.17199436
0000f0 c2 40 2b 3e 08 62 1e be 90 0c 8d bf bd 9f 27 bf
       0.16723922 -0.15467083 -1.1019459 -0.65478116
000100 f2 ef 8c bd e3 22 1e bd 2a 9f cc be e6 0e ec be
       -0.068817034 -0.03860749 -0.39965183 -0.46105117
000110 03 40 43 3c 0b 70 8b 3d a9 15 f3 3d f5 99 5e bd
       0.011917117 0.0680848 0.11869366 -0.054346044
000120 bc 1a ea bd 90 2f d3 bd b0 57 8c be 64 9a 03 3f
       -0.114308804 -0.10311806 -0.2741065 0.51407456
000130 f9 42 cf 3d a5 68 15 bd a7 74 4e 3e 2b 4d ab bd
       0.10120196 -0.03647675 0.20161687 -0.08364328
000140 66 5c a6 3f 63 d1 25 be 07 3d b2 3d f3 0a bd be
       1.2996948 -0.16193156 0.08703046 -0.36922416
000150 6e 41 b0 bd 4e 37 89 3d 2f ff ca 3f 61 63 f2 3e
       -0.0860623 0.06700002 1.5859126 0.47341445
000160 d1 4f 13 3e e7 6b 11 be b5 10 52 bf f3 ae 19 bf
       0.14385916 -0.14201318 -0.8205674 -0.60032576
000170 12 8d 00 3c 09 46 1b be 66 73 9e bf 1b eb 3b bf
       0.007846134 -0.15163435 -1.2378967 -0.7340562
000180 21 47 a8 be 36 b3 5b 3e 42 ef 94 3f 54 6a 24 3f
       -0.32866767 0.21455082 1.1635516 0.64224744
000190 8c 3e 22 be b4 9e b9 be 82 ba f9 bd 74 8b 13 bf
       -0.15844172 -0.36253893 -0.12193777 -0.57634664
0001a0 35 f1 09 3e fe 2f 7a be c3 4c 06 3e 16 de bd bd
       0.1347092 -0.2443237 0.1311522 -0.09270875
0001b0 fb 09 46 bf df 9f e0 3d 44 29 37 3f 17 a9 14 3f
       -0.7735898 0.10967993 0.7154734 0.5807051
0001c0 09 95 6f 3e 1e f5 40 be ee 36 6a bf 03 27 39 bf
       0.23396696 -0.18843505 -0.91490066 -0.7232515
0001d0 72 4e 4b bf d4 12 8b be 28 d0 43 3e 9b 02 e6 3e
       -0.79416573 -0.27162802 0.19122374 0.44923863
0001e0 19 39 bd 3e 44 0c 93 be b8 85 9f bf ec 42 4e bf
       0.36957625 -0.28720295 -1.2462683 -0.80570865
0001f0 7b ff 7e 3d 42 68 2f be 8b 44 90 bf 0c 26 46 bf
       0.062255364 -0.17129615 -1.1270918 -0.77401805
000200 07 68 19 3e 4c 41 b9 bd 76 79 40 bf 84 c6 c8 be
       0.1498109 -0.090456575 -0.75185335 -0.39213955
000210 b4 df 30 be 6a 88 47 3d b0 72 c8 3f 4d 55 ed 3e
       -0.17272836 0.04871408 1.566 0.46354142
000220 dd d9 45 be ef e4 08 3e 81 e1 e4 3e a9 6d 20 bc
       -0.1932139 0.13368581 0.44703296 -0.00979177
000230 71 b9 2c bd 4e 34 c6 3d 4d 7e 00 3e e6 00 cf bc
       -0.04216904 0.09677945 0.1254818 -0.025268983
000240 2e c3 8d be 98 ba 48 be 5b d5 b7 be e1 00 58 bc
       -0.27687973 -0.1960243 -0.35904965 -0.013183803
000250 1a 50 96 3e 7f ad 64 be 9e e5 9b bf 02 3e 5f bf
       0.29357988 -0.22331809 -1.2179449 -0.8720399
000260 a3 e4 f4 be 63 79 13 3e 61 b6 07 3f 19 21 32 3e
       -0.47830686 0.14401774 0.53012663 0.17395438
000270 7d b5 45 bf 30 f4 69 3e dc f3 af 3f 50 6c fa bd
       -0.77230054 0.22847056 1.3746295 -0.1222769
000280 cd 63 74 3e 60 f0 53 be 97 d4 bf bf 7e 12 65 bf
       0.23866196 -0.20697165 -1.4986752 -0.8948134
000290 74 6b 75 3e 8b 10 75 be 30 48 a0 be 6e 84 49 bf
       0.23966771 -0.23932092 -0.31305075 -0.78717697
0002a0 8a 6a d7 3e 30 a1 13 be 40 34 e9 bd c6 44 3a bf
       0.4207347 -0.14416957 -0.11386919 -0.7276119
0002b0 e8 b2 4a 3e 38 4f 69 bd 2b 8b ee 3c 4c 5c cc bd
       0.1979481 -0.056960315 0.029119095 -0.09978542
0002c0 fd 6f a9 bf 01 1a b1 be 8f ec 3c 3f 17 93 ca be
       -1.3237301 -0.34590152 0.7379846 -0.39565346
0002d0 87 bf 10 3f 8a e6 af 3d 4f 71 99 bb 78 2c 1d 3f
       0.5654225 0.08588894 -0.004682697 0.6139598
0002e0 8c b1 d0 3d e7 36 22 3d c7 23 ab bf 0f e9 3b 3f
       0.101901144 0.03960314 -1.3370293 0.73402494
0002f0 61 30 f8 bd 38 08 d4 3e 6c 11 92 3f bc b5 65 3f
       -0.121186025 0.4141252 1.1411567 0.8973043
000300 e4 96 a1 3e 1b aa 02 bf 9d df a3 bd d0 b7 8a be
       0.31560433 -0.5104081 -0.08001635 -0.27093363
000310 a2 8c 87 3e f1 62 b6 be 53 7c 47 be ce 4d 7f bf
       0.26474482 -0.3562236 -0.1948102 -0.99728096
000320 dc 7f 91 3e dd 87 ae 3d 86 03 bd bf 5e 0e 0e bf
       0.2841786 0.085220076 -1.47667 -0.5549067
000330 24 71 37 bf f0 08 3a 3d 42 00 3a bf 3e 48 a2 3e
       -0.71657014 0.04541868 -0.72656643 0.3169574
000340 3a 8d 0c be 96 1c 90 3e 3f 39 57 3f 1e fb 2e 3e
       -0.13725749 0.2814681 0.84071726 0.17087981
000350 a3 25 21 bf b8 a5 82 3e 77 16 a1 3f 08 2b 9a 3e
       -0.62948054 0.25517058 1.2584981 0.30110955
000360 8d f8 17 3f d2 28 62 3d 61 0e 47 3f ee 8d 3c 3e
       0.59363633 0.05521471 0.77756315 0.18413517
000370 cf d9 6b 3e d8 4a da bd 5a 43 e6 bf c5 eb bc 3d
       0.23032306 -0.106588066 -1.7989304 0.09224657
000380 7e b5 f3 3d ab 4f b4 be 76 b0 09 bf 73 bc de be
       0.11899851 -0.35217032 -0.53784883 -0.4350315
000390 12 f8 ab bd f3 25 36 be ae 5e 7a bf bf 56 b2 bd
       -0.08396925 -0.17787914 -0.9780072 -0.08707952
0003a0 a8 53 37 3e 53 5d 0b 3e 98 8a 8b 3f 09 39 6b 3e
       0.17903006 0.13609819 1.090167 0.22970976
0003b0 f5 b0 f0 3e 13 00 69 3d e4 fa 25 3f 18 a6 c2 be
       0.47010008 0.056884836 0.64835954 -0.38017344
0003c0 74 5e bb 3e 79 23 89 be 33 ab cb bf 19 2c 5a bf
       0.365955 -0.26784876 -1.5911621 -0.8522354
0003d0 e8 e6 94 3d 9f de 22 be b0 81 95 be 3c a1 35 bf
       0.07270604 -0.15905236 -0.29200506 -0.7094915
0003e0 ea 2b 23 be 31 81 0e 3f 2c a2 16 3f c1 7f 44 bd
       -0.1593472 0.5566588 0.58841205 -0.047973398
0003f0 25 b6 dd bc 84 14 bd 3e c3 a6 77 3e 2a b2 b9 3e
       -0.027064392 0.36929715 0.24184708 0.3626874

fc1.bias f4 [128]
000000 16 de da 3e 99 67 b6 be 8e 77 ea 3e 26 12 92 3e
       0.42747563 -0.35625914 0.45794338 0.2852947
000010 d5 7b b7 be 3e 45 28 bf 2f 96 42 be 07 4e b0 be
       -0.35836664 -0.65730655 -0.19002603 -0.3443453
000020 dc 8a ac be a8 eb c5 3e 49 df f3 3d 72 f4 21 be
       -0.3369969 0.38656354 0.11907823 -0.15815905
000030 ef c4 33 be 6b 7f 8e 3e 7d f5 9d bd f7 fa ab be
       -0.17555593 0.27831587 -0.07712839 -0.33589908
000040 10 03 fa 3e 8a 3c 06 3f 6e 55 a9 3e f6 ae c5 3e
       0.48830462 0.52436125 0.3307299 0.38610047
000050 98 ac bb bd 0c ee bc be 54 49 cd 3e 49 8f 00 3f
       -0.09163779 -0.36900365 0.40095007 0.50218636
000060 af 6f ff 3e eb 10 85 bd ff ea cd 3e a0 38 80 be
       0.49889895 -0.064973675 0.4021835 -0.250432
000070 85 ef b5 be 56 46 54 bf 50 51 02 bf 45 fe 01 3f
       -0.355343 -0.82919824 -0.50905323 0.5077861
000080 b2 dc a7 3e 7e c6 c0 be 66 e7 b4 3e a8 3c 10 3f
       0.32785565 -0.37651438 0.35332793 0.56342554
000090 4f 79 7b 3e f8 5d dd be 76 20 08 3f 42 27 02 be
       0.24557994 -0.43235755 0.5317453 -0.12710288
0000a0 5b 02 f5 be ab 15 ca 3e d6 2b af be ec 33 ec 3e
       -0.4785336 0.39469656 -0.34213132 0.46133363
0000b0 83 c0 71 be 32 1f 07 3e 25 1c 9f be c1 d6 c7 be
       -0.23608594 0.13195494 -0.3107616 -0.39031032
0000c0 98 ef df bc ab 8b c2 3e a6 6c 0e bf 66 99 0f bf
       -0.027335927 0.37997183 -0.55634534 -0.5609344
0000d0 bd 0b 8d 3d 35 d1 22 be 7f b0 25 bf ca f0 7b be
       0.068870045 -0.15900119 -0.64722437 -0.24603572
0000e0 87 68 7f be 5d 2e 9d bc b2 30 26 3d ea ac 61 be
       -0.24942218 -0.019187147 0.040573783 -0.22038618
0000f0 23 74 0d bf eb 1f cf 3e 12 fc d8 be 0c d4 3f bd
       -0.55255336 0.4045404 -0.42379814 -0.046833083
000100 86 33 17 3e 0b 0b 31 be 5d b6 f9 be b9 d5 48 bd
       0.14765748 -0.17289369 -0.48771945 -0.049031947
000110 e2 6c d0 be 39 59 02 3f 03 a6 b6 be 9d 2b 72 bd
       -0.4070807 0.5091739 -0.35673532 -0.059123624
000120 85 3d 88 3d 25 3c b3 be 63 21 1a bf bd d5 4f be
       0.06652359 -0.35006824 -0.60207194 -0.20296378
000130 6b 70 de 3e d7 a4 01 bf d3 84 86 be aa 0a 9f be
       0.43445143 -0.5064215 -0.26273212 -0.31062824
000140 0b 51 0b bf a3 5e 1d be 4f ea 6a be c3 03 6e 3d
       -0.54420537 -0.15368132 -0.22940944 0.058109056
000150 00 4e 0a 3f 94 4b 24 bf 3c bd b3 be d9 3b 9a 3d
       0.5402527 -0.64177823 -0.35105312 0.07530946
000160 20 b2 16 bf 6c df 92 be 47 61 f0 be f7 8c 00 3f
       -0.5886555 -0.28686082 -0.46949217 0.50215095
000170 bf 19 79 be ef ed dd bd d4 df 18 3f f3 57 00 bf
       -0.24326228 -0.10836398 0.59716535 -0.501342
000180 b8 59 6d be 36 15 7d 3e 90 e9 99 3e 04 8f 23 be
       -0.23178756 0.24715123 0.30061007 -0.15972525
000190 65 13 e1 3e 8a b8 ea 3e 4a 6a 00 bf ff 0f 25 be
       0.4396011 0.45843917 -0.50162184 -0.16119383
0001a0 7d 0c 3a bd 0c e3 9e be a8 2c ce be 82 d9 d7 be
       -0.045422066 -0.31032598 -0.40268445 -0.42158133
0001b0 eb e2 21 bf 52 48 8e 3e ec 83 0c be f7 0e 4c bf
       -0.63236874 0.2778955 -0.13722199 -0.79710335
0001c0 71 42 f7 bd fe ee dc 3e 75 d1 a0 be bd 51 b5 be
       -0.120732196 0.43151087 -0.31409803 -0.35413924
0001d0 b2 35 60 3e d9 97 cf be 92 53 c0 be 09 17 a8 3e
       0.21895483 -0.40545538 -0.3756376 0.32830074
0001e0 90 e6 c8 be 1c f5 d7 3e df c4 c4 bc bd 3a 26 3f
       -0.39238405 0.4217919 -0.024019657 0.6493338
0001f0 4f 69 58 be 2c 27 d3 3d 62 6a d0 be 3f 30 a5 bc
       -0.21133922 0.10310206 -0.40706164 -0.020164607

fc2.weight f4 [128, 128]
000000 8a d5 85 3e 4f 4c 78 be bf bb f9 3c dc 78 93 3d
       0.2613948 -0.2424786 0.030485032 0.072007865
000010 b7 6b b0 3e 2f 70 21 3f a0 d9 ce 3c 9d 63 b0 bf
       0.3445718 0.63061804 0.025250256 -1.37804
000020 9e ac f8 be bb cb 27 3e 45 22 b7 bc 15 24 2f be
       -0.48569196 0.16386311 -0.022355208 -0.17103608
000030 82 60 44 3e 1d b2 c0 3d 6f bc 12 bf 38 1a 46 c0
       0.1917744 0.094089724 -0.57318777 -3.0953503
000040 90 94 ef 3d ca 40 02 3e 92 44 40 3e 64 2c 45 3d
       0.11698258 0.12720028 0.18776157 0.048138037
000050 4f 01 d4 3e fb 0b 68 bf 16 64 ab 3d bc e7 2a 3e
       0.41407248 -0.9064328 0.08368699 0.16689962
000060 e6 9f d2 3d 3b a5 6f be 42 25 27 3d c3 5b ea 3e
       0.102844045 -0.23402874 0.040807016 0.45773134
000070 2c 3e e4 bf 56 7d a2 be ef 40 14 c0 b5 60 43 3e
       -1.7831473 -0.3173625 -2.3164632 0.1907986
000080 a2 10 01 3e a8 29 4d bf ac 91 94 3d 89 db 14 3e
       0.12604001 -0.8014169 0.07254347 0.14536871
000090 34 3a a7 bb 5f 35 4a c0 45 79 bf 3d 5d c3 84 3c
       -0.005103374 -3.1595075 0.09349302 0.016206438
0000a0 f3 7d 6f c0 c1 90 93 3e 73 d7 cd bf 66 0c 51 3e
       -3.7420623 0.28821376 -1.6081375 0.20414886
0000b0 b7 fe 4f 3e b8 6f ef 3d 59 6f c2 be ce d3 f7 be
       0.2031201 0.116912305 -0.37975577 -0.48403782
0000c0 e5 3a e2 3d 7f d3 c7 3d 49 cc 83 bf 72 b3 55 3d
       0.110463895 0.097571366 -1.0296718 0.052173086
0000d0 c2 c4 67 3e 6c 7c 71 be c9 e0 1e be 99 e5 86 bc
       0.22633651 -0.2358262 -0.15515436 -0.016466903
0000e0 09 23 8d be 09 9b f0 bd e2 9e 3c 3e 2e 93 8d 3e
       -0.27565792 -0.117483206 0.18419984 0.27651352
0000f0 fa 6e 3d c0 e6 3d 0e 3e 29 2c 30 bd c6 30 ff bc
       -2.9598985 0.138908 -0.043010864 -0.031151187
000100 eb 54 74 3d 25 73 86 3e 3a 9a f4 bf f7 80 4e 3c
       0.059651297 0.26259723 -1.9109566 0.01260399
000110 10 70 12 c0 16 5d 02 bd ce fa b0 be da 35 e5 3d
       -2.2880898 -0.031827055 -0.3456635 0.11191912
000120 fb 94 c7 3e cb b3 50 bf 7d 3f 9a bd bf 0f c4 bd
       0.3898085 -0.8152434 -0.07531641 -0.09573316
000130 7c 59 64 3e 9c 80 7d c0 2e cd 66 be 56 22 c6 3e
       0.2229976 -3.9609747 -0.22539207 0.3869807
000140 21 04 bf bf 28 75 ab 3c 4d b9 56 3e c9 cd 2e bc
       -1.4923135 0.020929888 0.20969124 -0.01066918
000150 e0 8f 14 3e 4c 7e ce bd 11 72 4e be 7b da ac 3d
       0.14508009 -0.10082683 -0.201607 0.08440109
000160 6d 39 4b c0 ef ed 33 bf 7d 45 90 3e e6 70 3f 3e
       -3.17538 -0.7028493 0.28178015 0.18695411
000170 00 c1 0e bf ad d5 82 bd eb c3 86 3d 28 36 69 bf
       -0.55763245 -0.06388412 0.06580337 -0.9109826
000180 f1 9f 09 bf bd 0d 8e 3e 1b cd c3 bc 45 69 7a bf
       -0.53759676 0.27744856 -0.023901513 -0.9781688
000190 f5 00 89 3d 14 26 86 3e e1 5b c7 bf 6b 10 8c be
       0.06689636 0.26200926 -1.5574914 -0.27356276
0001a0 be 6e ab bc 71 a4 52 3e df 1c 18 bf 95 f8 b3 be
       -0.02092683 0.20570542 -0.59419054 -0.3515059
0001b0 fd a9 dc be ca 2c 86 3e e4 24 4e 3e a9 1d ce be
       -0.4309844 0.26206046 0.2013126 -0.40257004
0001c0 5c 2e a5 bf e9 dd a4 3d 24 59 6e bf 64 25 88 be
       -1.2904773 0.080501385 -0.9310477 -0.26591027
0001d0 2e cf aa 39 35 70 87 be f7 1e e3 be b0 1c 2d 3e
       0.00032579288 -0.26452795 -0.44359562 0.16905475
0001e0 80 ce 59 c0 3c 26 d2 ba 35 72 e9 be 46 af 13 3e
       -3.4032288 -0.0016033123 -0.45594946 0.1442233
0001f0 73 08 0b bd 5f 29 f1 3c 98 85 09 bf 57 a7 01 3f
       -0.033943605 0.029438673 -0.5371947 0.50645965
000200 84 c1 94 3e e9 01 a9 be 51 79 43 3e d6 0a 3c 3e
       0.2905389 -0.3300927 0.19089247 0.18363509
000210 74 73 c5 bf 29 f8 f9 3d 67 0d c0 bf e4 18 99 bf
       -1.5425858 0.12205536 -1.500409 -1.1960721
000220 0e 15 b2 bf 8b 62 1a 3e d6 7c 14 3e c4 40 ee bd
       -1.3912675 0.15076654 0.14500746 -0.11633447
000230 c7 74 80 3d e9 bc 25 3e 4f c7 fb be 53 80 34 bf
       0.062722735 0.16185345 -0.49175498 -0.7050831
000240 c5 7c e6 3d 95 09 c6 3d 4c c9 3c 3e f7 98 27 3e
       0.11254267 0.096697964 0.18436164 0.16366945
000250 4f 7d 10 3f a5 39 e1 bf 48 a0 4d 3b f3 91 bf 3d
       0.56441206 -1.7595717 0.0031376053 0.093540095
000260 72 ea 73 3e 75 84 5b 3e 8a dd 87 3e cc ad f9 be
       0.23819903 0.21437247 0.26536208 -0.4876541
000270 38 fe 7d be 18 70 68 bf f4 9e ad bf e9 34 1d 3e
       -0.24804008 -0.9079604 -1.3564134 0.15352215
000280 d3 d7 0d 3d 0b 8b d1 bf 8a 6e 3e 3d 2a d8 41 3e
       0.034629654 -1.6370558 0.046492137 0.18930116
000290 0d dd 22 3d 03 7d 63 bf ae 3a 46 3e e3 c7 63 be
       0.03976159 -0.8886263 0.19358322 -0.2224422
0002a0 50 5e c4 bf e1 63 28 3e 91 5e 6b 3e 92 32 42 3e
       -1.5341282 0.16444351 0.22985293 0.18964604
0002b0 c2 a3 8b 3f ef f2 8c 3e 6d 7c 04 3f 4a a4 62 bf
       1.090935 0.27529094 0.5175236 -0.88531935
0002c0 09 20 af 3c 77 a4 28 3e 85 6e d0 be e4 32 75 bf
       0.02137758 0.16468988 -0.4070932 -0.9578078
0002d0 8d 83 12 3e 87 f6 7d 3e 83 54 0f bf 69 cc 1e bf
       0.14307995 0.24801074 -0.5598833 -0.62030655
0002e0 ef 46 13 bf d2 c8 5a 3d a1 62 10 3c 14 86 bc 3d
       -0.5753011 0.053414173 0.008812577 0.09205261
0002f0 64 5f dc bf 5e f6 03 3d bc ca 15 be 84 73 a2 3d
       -1.7216611 0.032217376 -0.14628118 0.07932189
000300 1f 36 a1 3d 39 3e 44 3e 06 d4 64 be b9 7e 26 3d
       0.07871651 0.19164361 -0.22346506 0.040648196
000310 57 e7 9b bf 82 37 91 3e e8 83 53 bf 25 5b 3b be
       -1.2179974 0.28362662 -0.8262315 -0.18296488
000320 de cc 1c 3e a1 8e 91 bf fc 63 94 be 39 53 89 be
       0.15312526 -1.1371652 -0.28982532 -0.26821306
000330 7b 4c 83 3d 73 7d 07 bf d6 d9 20 bf 2b 3c 10 3d
       0.06411072 -0.52925795 -0.6283239 0.03521363
000340 05 27 11 bf c2 ca a1 be 1d cc 8a bf 90 c0 cf 3d
       -0.56700164 -0.31600004 -1.084354 0.1014415
000350 38 47 2f 3e 62 ce 76 bd 36 ed bd bf a4 8e 96 3d
       0.17117012 -0.060255416 -1.4838016 0.07351425
000360 96 dc d7 bf 21 b6 c1 bc 96 a3 11 bf 44 8e f5 3d
       -1.6864192 -0.023646416 -0.5689024 0.11990026
000370 46 35 44 3e c4 88 06 bd d0 08 83 3e 0a e8 59 bf
       0.19160947 -0.032845274 0.2559266 -0.8511969
000380 a9 ef 4b bf 55 74 9a 3d a8 b0 cd 3d 98 b1 b0 3e
       -0.7966257 0.0754172 0.1004346 0.34510493
000390 d9 e7 23 3e b9 30 e9 3d 42 62 44 bf a8 56 4e bd
       0.16006412 0.11386246 -0.7671243 -0.05037561
0003a0 5f 2a 13 3e e4 49 9f bf fd 29 c7 bf 23 92 c4 be
       0.14371632 -1.2444425 -1.5559689 -0.38392743
0003b0 f6 28 cf bd 7c d4 0f bd 21 20 3e be 6e e1 a1 be
       -0.101152346 -0.03511475 -0.18566944 -0.31617302
0003c0 44 e0 d5 bf 2c 4c 91 3e af 77 76 3e f1 94 47 bf
       -1.6709065 0.28378427 0.24069093 -0.7796164
0003d0 41 d0 29 3e 07 e8 ec bd c5 89 d6 be 2d aa 26 3d
       0.16583349 -0.11567693 -0.41901985 0.040689636
0003e0 28 50 76 be 5e f0 8f 3e ff 33 fc 3d 0f ac 6b 3e
       -0.24054015 0.28113073 0.12314605 0.23014854
0003f0 0b 9b 4d be 07 e2 d8 3c 0c 17 94 bf 1a 38 0b bf
       -0.20078675 0.026474966 -1.1569533 -0.5438248

fc2.bias f4 [128]
000000 5c da 2b 3e 34 81 c2 3e 84 1d 22 3d 9c d8 d3 bd
       0.16782516 0.379892 0.03957893 -0.10344049
000010 fd 18 d8 bd c5 12 a1 bd f4 b2 37 3d 63 c9 de 3e
       -0.10551641 -0.07864908 0.044848397 0.4351302
000020 cc ac 5f bd b1 dc ae bd e2 40 c2 bd ce a6 69 3e
       -0.05460815 -0.08538187 -0.09485032 0.22817537
000030 8e 75 68 3e 09 0e 86 bd 22 f5 3f 3b 55 84 05 3e
       0.22701094 -0.06545646 0.0029290398 0.13038762
000040 be 3e c8 bc 2e 4d 5d bd f8 eb 84 3e f4 cd 84 3c
       -0.02444398 -0.054028682 0.2596128 0.016211487
000050 08 51 28 3e d2 fb b0 3c 16 f1 67 3d 52 fb 72 3e
       0.16437161 0.021604452 0.0566264 0.23728684
000060 0d 7f da 3d 3c ba 8d bd eb 1e bb bc 40 02 68 3d
       0.10668764 -0.06920287 -0.022841891 0.05664277
000070 9a 6d dd 3a 02 fc 82 bd 6d 98 1e bd 04 cf a0 3d
       0.0016893626 -0.06395723 -0.038719583 0.07851985
000080 b1 58 bb 3e 45 59 82 3e dd 76 e4 bd fe b9 3e 3d
       0.36591104 0.25458732 -0.11155484 0.046564095
000090 97 37 89 3e 40 a2 fa bd 6b f6 38 3e ab bd 98 bd
       0.26800224 -0.12237978 0.18062751 -0.07458051
0000a0 23 34 e3 3d 46 64 37 3e dd 74 c8 3d 10 57 b0 3d
       0.11093929 0.17909345 0.09787915 0.08610356
0000b0 c1 55 9d 3e 98 6f 15 bd 6b a0 1e 3d c6 27 21 3c
       0.30729488 -0.036483377 0.038727205 0.009836143
0000c0 40 6b 0b bd 4f 6c 37 3e 58 07 b4 3e 8a 53 7d 3e
       -0.03403783 0.1791241 0.35161853 0.24738899
0000d0 b4 db a8 3c 76 84 d1 3d 5b ee a5 bd 90 b2 bc 3d
       0.020612575 0.10230343 -0.08102103 0.092137456
0000e0 32 73 83 3c 61 13 0f 3e 0b 20 55 bb 20 11 88 3e
       0.01604614 0.13972236 -0.003252032 0.26575565
0000f0 e8 ce d3 bd 9c 35 8a 3e 22 96 05 3d e9 17 1f bd
       -0.103421986 0.26994026 0.03261388 -0.038841162
000100 cf cb 28 bd 9b db 65 3e 19 f1 d9 3e b9 30 8e 3d
       -0.041209992 0.22447054 0.42566755 0.06942887
000110 bd 9e 42 3e bb 38 a9 3d 97 58 5d 3e 5d e5 f9 3e
       0.19005866 0.082627736 0.21615826 0.48807803
000120 6f d3 4b bd 28 8a 1f 3d 8c 37 17 3d f5 3a 1d 3e
       -0.049762186 0.038950115 0.036918208 0.15354522
000130 dd a5 e2 bd 22 1a 26 3e 1e 31 b4 bc 7b b7 1a bc
       -0.11066792 0.16220906 -0.021996077 -0.009443159
000140 b4 b4 f2 bd 94 ae 13 bd 3a 20 04 3e 21 78 d5 3e
       -0.11850873 -0.036055163 0.12902918 0.41693214
000150 8c b1 c2 bc f1 a9 81 bc ef 23 56 3c 99 84 b7 3d
       -0.023766302 -0.015828105 0.013070091 0.08960838
000160 58 4b 84 3e e9 c8 9b 3c ad 43 1f bd 38 2e a6 3d
       0.25838733 0.0190167 -0.0388829 0.08114284
000170 ab 2d 44 3e 89 5f 80 3c 0c 6b ef 3e 53 26 25 bc
       0.19158046 0.015670555 0.46761358 -0.010079938
000180 15 a7 8f ba 3c de cf bd f3 45 2f bd da bd 83 bd
       -0.0010959829 -0.1014981 -0.04279132 -0.06432696
000190 0c 86 c2 bd 46 f7 80 bc 0a 57 9a 3e 8f 2a 22 3e
       -0.09498224 -0.01574291 0.3014453 0.15836547
0001a0 73 73 91 bd 53 d6 94 3c b8 a8 00 3f 2b cc 63 bd
       -0.07102098 0.018168604 0.50257444 -0.05561463
0001b0 b3 17 2f bd 5a e8 87 bd f4 9c ca 3e dd da 22 bd
       -0.04274721 -0.066361144 0.3957287 -0.039759506
0001c0 89 5a 85 3e 18 bb ac 3e 54 0e 70 3e 63 56 28 3d
       0.26045635 0.3373649 0.23442966 0.04109801
0001d0 c9 80 e9 3d 80 b1 88 bd 46 47 e0 bd a2 b5 a1 3b
       0.11401517 -0.066744804 -0.10951094 0.0049349824
0001e0 f3 6d 22 be 68 bf 37 3d fd 62 e8 bd d4 a7 34 3d
       -0.15862255 0.044860274 -0.113470055 0.044105366
0001f0 db 15 c9 3d 2a 40 4f 3c 76 d3 65 3d 02 a2 5e bd
       0.09818622 0.012649575 0.056109868 -0.05435372

fc3.weight f4 [2, 128]
000000 41 75 eb be 69 22 27 3f 83 0d 75 bb dd 72 b5 3c
       -0.45987895 0.6528688 -0.0037392087 0.022149498
000010 cf 08 70 bb 92 f5 1d 3d e5 f0 d8 bc b2 98 bc 3e
       -0.0036626344 0.038564272 -0.026482055 0.36835247
000020 fe 73 27 bc 31 28 2a 3c 7e 6a ab bc 96 90 fd bc
       -0.010220526 0.010385559 -0.020924803 -0.030952733
000030 8d 26 5a be c9 d7 df 3c a6 30 3a 3d dc 6b 45 bd
       -0.21303768 0.027324574 0.04545655 -0.048198566
000040 ab ac ca 3c 1d a1 4e bb 5b 0c 46 3e 00 6f 80 3d
       0.024740538 -0.0031529136 0.1934065 0.062711716
000050 4c 1c 7b bf b0 aa 85 3b 86 64 5d 3d 70 ea 5c 3f
       -0.9809005 0.0040791854 0.054050945 0.86295223
000060 e5 0e 18 40 f4 e9 0d 3b c9 eb 07 3c 52 f0 99 bc
       2.375909 0.002165434 0.008295962 -0.018791351
000070 69 2b 6e bc dd 72 01 3d f4 da 08 bb 25 dc 68 3e
       -0.014536717 0.031603683 -0.002088246 0.22740228
000080 97 a2 1e 3f da e3 84 3f 4a 3c ee 3c 1f fc 9a bd
       0.6196684 1.0382035 0.029081482 -0.075676195
000090 8c da 14 3f b1 07 57 3c d1 c1 9d bf a3 8b 8d bc
       0.58145976 0.013124392 -1.2324773 -0.017278498
0000a0 d3 4a 3f 3f 76 14 60 3e 49 51 eb bf c0 41 47 3e
       0.7472355 0.21882805 -1.8384181 0.19458675
0000b0 86 2e 04 be 82 26 3c be 19 e5 77 bb 6e 46 81 3c
       -0.12908372 -0.18374065 -0.0037825762 0.015780654
0000c0 25 45 84 3b 57 ad d1 bf 8d 5a 8f 3f b6 46 a1 bf
       0.004036563 -1.6381024 1.1199509 -1.2599704
0000d0 18 f2 ef bc 15 0b 10 bf e8 65 94 3c 0a 48 09 3f
       -0.029290244 -0.5626691 0.018114999 0.5362555
0000e0 5e 1b 14 3d 61 62 95 be f7 ea 31 bf 26 46 26 3f
       0.036158912 -0.2917662 -0.6949915 0.6495079
0000f0 af 27 82 bb c9 d8 02 3f d4 af a9 3b 99 c2 35 3b
       -0.003972016 0.5111204 0.005178431 0.0027734397
000100 d4 5d a2 3c e0 7a dd 3e c4 1a a4 3f 46 9f 41 3d
       0.019820131 0.4325781 1.2820668 0.047271036
000110 11 0c 1b 3f 83 62 f5 3c 6a ac 06 3f 47 c3 7e 3f
       0.60565287 0.0299542 0.52606833 0.9951672
000120 88 fc d4 3c f3 ee 2b 3b 3d a2 23 bb 48 84 52 bf
       0.025999323 0.0026234954 -0.0024968528 -0.82233095
000130 0d bd 97 3a 94 a1 1f bf 35 99 9b 3d 9b 22 b2 bb
       0.0011576727 -0.62355924 0.07597581 -0.005436254
000140 75 f4 2f 37 2f ae e0 3e 47 41 a4 3f 6d 7f c3 3f
       1.048773e-05 0.43882892 1.2832421 1.5273262
000150 94 5d 87 3c 90 89 1a 3d 40 53 6a bf 57 f3 71 3b
       0.016524114 0.037728846 -0.9153328 0.0036918723
000160 93 b4 e4 3e cb 3d 81 bc a9 33 06 bd 64 15 14 3d
       0.44669017 -0.015776535 -0.03276411 0.036153212
000170 98 cf 3e c0 39 c7 b2 bc 5b 5c 5a 3f 81 81 46 bd
       -2.9814205 -0.021823512 0.85297173 -0.04846335
000180 8c 2d d1 3a 99 13 c5 ba 89 99 e5 bc bc ea 82 bd
       0.0015959009 -0.0015035748 -0.028027313 -0.06392428
000190 3f da 64 3c e8 1b 79 bb 01 e0 b1 3f 6d ee b5 3f
       0.01396805 -0.0038011018 1.3896486 1.4213387
0001a0 53 27 37 bc 65 b1 09 c0 e9 f2 a5 3e 89 5c 89 3d
       -0.011178809 -2.1514523 0.32411888 0.06707103
0001b0 a1 de 53 3a 62 f7 26 3a 81 9e d4 3f 14 c4 94 bb
       0.00080821855 0.00063692604 1.6610872 -0.004539976
0001c0 96 5c 03 c0 cd 49 ca 3e 8c 90 6e 3f 56 9b 8f 3d
       -2.052526 0.3950943 0.9318931 0.0701205
0001d0 99 98 4f 3c f9 cd 4f bd e5 c4 34 3b f3 82 94 3a
       0.012670659 -0.05073354 0.0027583179 0.001133053
0001e0 7c 35 ff bc fa f9 c1 be b5 da 2b 3d 07 fe 24 3d
       -0.031153433 -0.3788603 0.041956622 0.04028132
0001f0 6f 34 74 be 59 6c 9b 3a 3a 1a 46 c0 10 2c 04 bb
       -0.23848127 0.0011857852 -3.0953507 -0.0020167865
000200 4b 66 ac 3f 1f 60 21 3f 26 3d b2 3c 1b 95 1a 3d
       1.3468717 0.63037294 0.021757673 0.037739854
000210 1a 81 48 3b 85 2d a8 3b 66 ad ce 3c 3e 10 30 3f
       0.0030594529 0.0051323795 0.025229167 0.68774784
000220 79 d4 14 3b ed 3c 10 bd fc 9d 23 bd ed 4f dc 3f
       0.0022709651 -0.035214353 -0.039945588 1.7211891
000230 c5 19 3f 3f 50 74 1c 3d df 10 f2 3c c2 44 e7 3e
       0.74648696 0.03819686 0.02954906 0.45169646
000240 a6 ae 0a bd 8b f3 87 3c c7 58 d5 3e 21 d1 f7 3b
       -0.033857964 0.016595623 0.41669294 0.007562772
000250 25 00 85 3f 15 24 42 3b 23 0c 5e 3d ab e6 0a bd
       1.0390669 0.0029623557 0.054210793 -0.03391139
000260 e6 82 79 be 60 a6 a7 bb ef e2 f7 3c d9 56 c1 bc
       -0.2436634 -0.005116269 0.030259578 -0.023600983
000270 68 ec 48 bc eb a6 89 3c 68 83 c7 bb 51 81 41 bf
       -0.012263395 0.016803226 -0.006088663 -0.75587946
000280 7c 36 35 3f 80 2a 3b be d9 fe f3 bc cf f4 d3 3b
       0.7078626 -0.18277931 -0.029784607 0.0064683924
000290 4c 2a 10 3f 55 da a8 b9 6b dc 4b bf e1 03 8a bb
       0.5631454 -0.00032206127 -0.79633206 -0.004211888
0002a0 93 4d 83 bf 8a 15 d5 be 78 fe 1f c0 ac 73 8c be
       -1.0258049 -0.41617996 -2.4999065 -0.27432
0002b0 50 f0 6c 3f 2e 85 65 bb a6 f8 83 3a 1b b9 8c bd
       0.9255419 -0.0035022008 0.001006861 -0.068712436
0002c0 87 44 51 3d b0 0d 83 bf 16 5f 93 3f 3f f6 3b 3f
       0.051090743 -1.0238552 1.1513393 0.73422617
0002d0 76 66 22 bd 51 c9 f4 be bb a3 8f 3d fb be 44 3f
       -0.039648496 -0.47809842 0.07013651 0.76853913
0002e0 c3 9c bd bc 9d b0 cd bf eb a1 34 3f dd a1 09 bd
       -0.023146039 -1.6069523 0.7055957 -0.03360163
0002f0 2d b0 93 bc 92 08 30 40 46 e3 8c 3c 22 95 27 bc
       -0.018028343 2.750523 0.017198216 -0.010228427
000300 b4 8c 52 bd d6 9f b9 be 46 86 0a 3e e8 79 b4 bc
       -0.051403716 -0.36254758 0.13527784 -0.022030786
000310 ec 16 9e 3f c7 1f dc bb aa 2c e6 be 5e b6 f1 3f
       1.2350745 -0.0067176553 -0.4495595 1.8883779
000320 63 31 cf 3c 9d 71 5f 3c 9c 48 e5 bb 74 41 2d 3f
       0.025292104 0.013637927 -0.006997181 0.67678
000330 a4 12 11 ba 61 4f 43 3f 88 b1 9b bc 75 a6 46 3c
       -0.00055340887 0.76293 -0.019005552 0.012124647
000340 b1 cc c9 3b c8 6f fe bd 19 31 36 bf 54 d8 8f 3f
       0.0061584343 -0.12423664 -0.7116867 1.1237893
000350 98 79 94 bd ab df 34 bc af 6c 11 3f ea ce 02 bc
       -0.07249755 -0.011039655 0.56806463 -0.0079839025
000360 e3 f0 b0 bd 61 0c 07 bd 23 9b 33 bd e0 85 80 be
       -0.086396955 -0.03297079 -0.04384912 -0.2510214
000370 57 65 30 bf 1b 49 b4 bb e0 b8 61 3f e3 58 ab bd
       -0.6890463 -0.005501879 0.8817272 -0.08366563
000380 dc e4 c1 ba 0b fa 0a 3a 72 77 b2 bc 3d 96 2e 3d
       -0.0014792937 0.00053015415 -0.021785472 0.042623747
000390 f4 d7 32 bc bd d3 b6 3c 97 cf bf 3b 99 40 91 3e
       -0.010915745 0.022317762 0.005853604 0.28369597
0003a0 9e ac b9 3c c3 fc e9 be 9f 29 a9 3f 68 6a 90 3c
       0.022665318 -0.45700654 1.3215827 0.017628863
0003b0 35 cc 9f bb 30 70 9f bc f3 2a 76 3f 5c f6 c9 bb
       -0.0048766383 -0.019462675 0.96159285 -0.0061634015
0003c0 47 4c 85 bf 72 d2 e8 3e 5f 1d 6e 3c 98 e9 30 bd
       -1.0413903 0.45473057 0.01453337 -0.043191522
0003d0 f4 11 13 3d 4d 71 95 bd 1d eb 9b 3b 71 36 28 3b
       0.035905793 -0.07297001 0.0047582523 0.0025667215
0003e0 b8 13 c7 bc ac 42 07 c0 5d d1 e6 3c 02 39 4e 3c
       -0.024301395 -2.1134443 0.028176004 0.012586834
0003f0 5b fc 28 3e a8 29 c0 ba 32 e4 0d c0 75 fe d1 3b
       0.16502516 -0.0014660852 -2.217053 0.0064085075

fc3.bias f4 [2]
000000 34 f9 9c 3a 6e 25 80 39
       0.0011976124 0.0002444195
