dqn_baseline.pth (torch, 72250 bytes, 6 tensors)

fc1.weight f4 [128, 4]
0	0x3e991dc9	0.29905537
1	0xbe8155a1	-0.25260642
2	0xbd7a3b99	-0.061091993
3	0xbd874df4	-0.06606665
4	0xbee2f452	-0.44327027
5	0x3e2cbd53	0.16869096
6	0x3f23e1e1	0.6401654
7	0x3f1dcd8b	0.6164176
8	0xbdf3de39	-0.1190762
9	0x3e96ceb3	0.29454574
10	0x3f0e42e9	0.55570847
11	0x3e7dac6b	0.24772803
12	0x3ca51049	0.020149367
13	0xbe586a1d	-0.21134229
14	0x3e2c1b6f	0.1680734
15	0xbe87ab94	-0.2649809
16	0x3d7ed81e	0.062217824
17	0xbf0685e9	-0.5254808
18	0x3f75a6a7	0.95957416
19	0xbec17b0e	-0.37789196
20	0x3ed56bda	0.41683847
21	0x3e554c12	0.208298
22	0x3faaead5	1.3352915
23	0x3f0ae674	0.54257894
24	0xbd28b6f5	-0.041190106
25	0x3c658f2a	0.014011184
26	0x3faa054e	1.3282869
27	0x3e6e2a64	0.23258358
28	0x3ebe7263	0.37196645
29	0xbe091a05	-0.13388832
30	0x3fa52d46	1.2904441
31	0x3ef757a9	0.48309067
32	0xbe1d5f12	-0.15368298
33	0x3e5b1333	0.21394043
34	0x3fae5db8	1.3622351
35	0x3f36a30a	0.7134253
36	0x3d81947f	0.063271515
37	0xbe80ea52	-0.25178772
38	0x3cc01223	0.023446148
39	0xbeb73157	-0.3577983
40	0x3e9f4351	0.31106046
41	0xbdf232e8	-0.11826116
42	0xbec233f3	-0.3793026
43	0x3f176751	0.59142023
44	0x3e71c21d	0.23609205
45	0xbda80a06	-0.08205037
46	0xbfca05e4	-1.5783048
47	0xbed42e55	-0.414416
48	0x3eab5087	0.33459875
49	0xbeac2965	-0.33625332
50	0x3dcea8ab	0.100907646
51	0x3efb6cbf	0.49106404
52	0x3e64e784	0.22353941
53	0x3d1b1004	0.03785707
54	0xbfdea3e0	-1.7393761
55	0xbd9cc61f	-0.07654976
56	0xbd962f8b	-0.07333287
57	0x3e0161a8	0.12634909
58	0x3fb128a7	1.3840531
59	0x3f226237	0.63431114
60	0xbdafcf40	-0.08584452
61	0xbbf4b366	-0.007467675
62	0x3e8df992	0.2772947
63	0xbf2440f0	-0.64161587
64	0x3c6ec7f7	0.0145740425
65	0xbd52ba8f	-0.051447447
66	0xbccd37ad	-0.025050962
67	0xbe509833	-0.2037056
68	0x3e2aeca2	0.16691831
69	0x3ddc796c	0.10765347
70	0x3e230075	0.15918143
71	0xbd83b71a	-0.06431408
72	0x3ecb80c8	0.3974669
73	0xbc01871b	-0.007905747
74	0xbeeed7de	-0.4664907
75	0x3ed1c0cc	0.40967405
76	0x3e12288c	0.1427328
77	0xbd9c04c2	-0.07618095
78	0x3e4943b8	0.19654739
79	0xbe2add03	-0.16685872
80	0x3e9aa5a3	0.30204496
81	0xbeaae66d	-0.33378926
82	0xbd2c278c	-0.042029902
83	0xbe644101	-0.22290422
84	0xbe1037eb	-0.14083831
85	0x3e084990	0.13309312
86	0x3fd11c24	1.6336713
87	0x3f342bf4	0.7037957
88	0xbf03e234	-0.51517034
89	0x3d1b6c91	0.037945334
90	0xbfbb5e08	-1.4638071
91	0xbe6107a0	-0.21975565
92	0x3ebc3ae1	0.3676367
93	0xbe3d1aa9	-0.18467201
94	0xbf559880	-0.8343582
95	0xbf018fcc	-0.5061004
96	0xbed9fb06	-0.42574328
97	0x3e99a00a	0.30004913
98	0x3ea44e26	0.32090873
99	0x3f03c631	0.5147429
100	0xbf65135a	-0.89482653
101	0x3e7b353b	0.24532025
102	0xc009287c	-2.143096
103	0xbdd27ca3	-0.10277679
104	0x3e759141	0.23981191
105	0xbe8871d1	-0.26649335
106	0x3e4b788a	0.19870201
107	0xbde4493d	-0.111467816
108	0xbe5bf99e	-0.2148194
109	0x3e9a6ddc	0.3016194
110	0x3f4340f8	0.7627101
111	0x3f03bd48	0.51460695
112	0x3e95281b	0.2913216
113	0xbe0b6d78	-0.13615978
114	0xbfac8ad9	-1.3479873
115	0xbf27c885	-0.65540344
116	0xbf65c3e1	-0.8975201
117	0x3e6c2c19	0.23063697
118	0xc008d474	-2.137967
119	0xbd618e0b	-0.055067103
120	0x3ee13ee1	0.43993285
121	0xbdbcae39	-0.09212918
122	0x400aa786	2.1664748
123	0xbed48df9	-0.41514567
124	0x3e337ec5	0.17528827
125	0xbe27975e	-0.16366336
126	0xbea5c49f	-0.32376572
127	0xbed8e473	-0.42361793
128	0x3ed97c7e	0.42477793
129	0xbd622dbc	-0.055219397
130	0xbeecb1ff	-0.4622955
131	0xbe928387	-0.28615972
132	0xbdf6cd70	-0.12050903
133	0x3e0feeac	0.1405589
134	0x3fc63657	1.5485333
135	0x3f163b2e	0.5868405
136	0xbe6ee564	-0.23329693
137	0x3dbf0591	0.093272336
138	0x3f1e559b	0.61849374
139	0x3de96bf5	0.11397544
140	0x3c043d87	0.00807131
141	0x3d3687cc	0.0445631
142	0x3e2b3e79	0.1672305
143	0xbe1610f2	-0.14654902
144	0xbf5d8760	-0.8653469
145	0xbcae35f5	-0.021265963
146	0xbcc2e4c8	-0.023790732
147	0xbe3d138c	-0.18464488
148	0x3ea514ae	0.3224234
149	0xbe85c831	-0.26129296
150	0xbfb47c85	-1.41005
151	0xbf27e28e	-0.6558007
152	0xbec15011	-0.37756398
153	0x3da32c24	0.079674035
154	0x3f38a4e9	0.7212663
155	0x3e5707c6	0.20999059
156	0xbf1580a4	-0.58399415
157	0xbc85cf9f	-0.016334353
158	0x3f8681f1	1.0508405
159	0xbee49372	-0.44643742
160	0x3e186240	0.1488123
161	0xbd502fd0	-0.050826848
162	0xbfc2f62e	-1.5231378
163	0xbf1f8c59	-0.6232353
164	0x3eb9f886	0.3632242
165	0xbed289e4	-0.41120827
166	0xbeb6b423	-0.35684308
167	0xbf0f99d4	-0.560941
168	0x3e9bd5d9	0.3043659
169	0xbdc7afe8	-0.09750348
170	0xbf9a648a	-1.2061932
171	0xbf0ee467	-0.55817264
172	0x3f1ca82c	0.6119411
173	0xbdc8abd3	-0.09798398
174	0xbe3b9126	-0.18317088
175	0xbea7bdb0	-0.32761908
176	0xbe07d6f2	-0.13265589
177	0xbde5b47b	-0.112160645
178	0x3fbe6b09	1.4876415
179	0xbf1a7e4a	-0.6034895
180	0xbd954b14	-0.07289711
181	0x3e9d8be1	0.30770782
182	0x3eeb70fe	0.45984644
183	0x3e8ad05b	0.27112088
184	0x3e50a6ba	0.20376101
185	0x3e7ed78f	0.24886917
186	0x3a2aeb17	0.00065200165
187	0x3f1d1860	0.6136532
188	0x3edc6f1d	0.43053523
189	0x3eb9df9d	0.36303416
190	0x3f722544	0.9458811
191	0x3f0025b9	0.5005756
192	0x3ee15fef	0.44018504
193	0xbe762329	-0.2403685
194	0x3c7b805d	0.015350428
195	0xbe127e6e	-0.14306042
196	0x3e69d3f9	0.22834767
197	0xbe1d4b0d	-0.15360661
198	0x3e2c7674	0.16842061
199	0xbf219dab	-0.6313121
200	0x3cd4fba4	0.025998898
201	0x3ea7e1a8	0.3278935
202	0xbecc3d9c	-0.39890754
203	0xbf04e51d	-0.519121
204	0xbed55876	-0.41669053
205	0x3e0386c3	0.12844376
206	0x3f4d8a72	0.80289376
207	0x3f0dcf11	0.55394083
208	0x3d5cea6b	0.053934496
209	0x3e45e5b9	0.19325913
210	0x3d79ba29	0.06096855
211	0x3e70e587	0.23525058
212	0xbef3697d	-0.4754142
213	0x3eace4c8	0.33768296
214	0x3ef59c1d	0.47970667
215	0x3eb89510	0.36051226
216	0x3f1d9be0	0.6156597
217	0x3e365936	0.17807469
218	0xbf88df9f	-1.0693244
219	0xbe470280	-0.19434547
220	0x3de367bc	0.1110377
221	0x3c9988cb	0.018741986
222	0xbfe34825	-1.7756392
223	0xbe8ee4a6	-0.2790882
224	0x3f079ee4	0.5297682
225	0xbeb9adaf	-0.36265323
226	0xbf27081d	-0.65246755
227	0xbf39bc1d	-0.72552663
228	0xbf4f5920	-0.8099537
229	0xbdf48af3	-0.11940565
230	0xbf1f4a19	-0.6222244
231	0x3ddd589f	0.10807919
232	0x3e940560	0.2891035
233	0x3eac5ed0	0.33666086
234	0x3f235e84	0.63816094
235	0x3ec1b369	0.37832192
236	0x3e3894e1	0.18025543
237	0xbdfeb2c9	-0.12436444
238	0x3fe51c49	1.7899257
239	0x3df8b09e	0.12143062
240	0x3e29563a	0.16536799
241	0xbe0a88b3	-0.13528709
242	0xbfdda265	-1.7315184
243	0xbf4050ba	-0.7512318
244	0xbf43cbbb	-0.76482743
245	0xbd2f02df	-0.042727347
246	0x3e89033b	0.26760277
247	0xbe2a375e	-0.16622683
248	0xbdb9447e	-0.09046267
249	0x3ebfcb17	0.37459633
250	0xbf14399c	-0.57900405
251	0x3dcd815e	0.100344405
252	0xbca25be9	-0.019819217
253	0x3e8f7640	0.28019905
254	0xbeac6209	-0.33668545
255	0x3f037046	0.5134319

fc1.bias f4 [128]
0	0x3eedf214	0.46473753
1	0xbeb36782	-0.35039908
2	0x3f1d6193	0.6147701
3	0x3f0b9750	0.5452776
4	0xbeeb2e10	-0.4593358
5	0xbef1524e	-0.47133106
6	0xbe918dba	-0.2842844
7	0xbea3020f	-0.31837508
8	0xbef758e7	-0.48310015
9	0x3f0b9c25	0.5453513
10	0x3e2c9c56	0.16856512
11	0xbee50744	-0.44732106
12	0xbe96341f	-0.2933664
13	0xbd919936	-0.07109301
14	0xbed36a36	-0.4129197
15	0xbdae4091	-0.08508409
16	0x3f3571f0	0.7087698
17	0x3f03e4f8	0.51521254
18	0x3e56845a	0.20948926
19	0x3ec2d9ca	0.38056785
20	0xbd062bea	-0.032756723
21	0xbf07037d	-0.527397
22	0xbdfacd7b	-0.122462235
23	0xbdc8c6c1	-0.09803534
24	0x3ecd4bb6	0.40096825
25	0xbf5f4082	-0.87207806
26	0x3efbd691	0.4918714
27	0xbe8ceedc	-0.27525985
28	0xbee7d129	-0.45276764
29	0xbf725659	-0.94663006
30	0xbe9b9ef9	-0.30394724
31	0x3f213d1b	0.62983865
32	0xbd99b21d	-0.075046755
33	0xbed8e92e	-0.42365402
34	0x3eae5122	0.34046274
35	0x3f232a11	0.63736063
36	0xbc0bc641	-0.008531154
37	0xbf05df3b	-0.5229375
38	0x3f176499	0.59137875
39	0xbd20ead1	-0.03928644
40	0xbed6800a	-0.4189456
41	0x3e7b77a7	0.24557362
42	0xbed94177	-0.42432758
43	0xbcb2ab52	-0.021810208
44	0xbef1db56	-0.47237653
45	0xbd1868d5	-0.03720935
46	0xbf044e5b	-0.5168206
47	0xbeded920	-0.43525028
48	0xbd0d72bf	-0.03453326
49	0x3f03a773	0.5142738
50	0xbed0781f	-0.40716645
51	0xbed43bea	-0.4145196
52	0x3ee566fc	0.44805133
53	0xbe9338fa	-0.28754407
54	0xbf1f13f7	-0.6213984
55	0xbea9d1c2	-0.33167845
56	0xbee2d2db	-0.44301495
57	0xbedca30f	-0.43093154
58	0x3e92af07	0.2864916
59	0xbd71f38d	-0.05907016
60	0xbf043626	-0.51645124
61	0xbe67544b	-0.22590749
62	0xbf532006	-0.8247074
63	0x3ee18417	0.4404609
64	0xbe9a629e	-0.30153364
65	0x3e0aaab3	0.13541679
66	0xbed41514	-0.4142233
67	0xbdd8b098	-0.105805576
68	0xbeea0112	-0.45703942
69	0xbe769f03	-0.24084096
70	0xbeccf7f4	-0.40032923
71	0xbe4b7b00	-0.1987114
72	0xbee463bd	-0.44607344
73	0xbef53b24	-0.47896683
74	0xbe92b40d	-0.28652993
75	0xbefba8da	-0.4915226
76	0x3ec2ba77	0.38032886
77	0xbe33b24d	-0.17548485
78	0xbf11e6b3	-0.56992644
79	0xbee3bc00	-0.4447937
80	0xbebf4237	-0.37355205
81	0xbf03cb4f	-0.514821
82	0xbeb9a607	-0.3625948
83	0xbd1e0b5f	-0.038585063
84	0x3f15d6a5	0.58530647
85	0xbeb3b0dc	-0.3509587
86	0xbf00912a	-0.502215
87	0x3e39551b	0.18098871
88	0xbf03a501	-0.5142365
89	0xbe8afec6	-0.27147502
90	0xbeddcf8c	-0.43322408
91	0x3edc2cd2	0.43002945
92	0xbeaa0ffd	-0.33215323
93	0xbcaaa293	-0.020829475
94	0x3f005e4a	0.50143874
95	0xbedf8deb	-0.43662962
96	0xbe9442c0	-0.28957176
97	0xbc800251	-0.015626105
98	0x3e0f2ea4	0.13982636
99	0xbe899cc3	-0.26877412
100	0x3f1ecebd	0.6203421
101	0x3f1462c1	0.57963187
102	0xbf07dd96	-0.5307249
103	0xbeb6cec5	-0.35704628
104	0xbebafea9	-0.36522415
105	0xbed885b1	-0.42289498
106	0xbed9d071	-0.4254184
107	0xbe945ab4	-0.2897545
108	0xbee921f2	-0.4553371
109	0xbca9fa05	-0.020749101
110	0xbeecfc40	-0.462862
111	0xbf2c1292	-0.67215836
112	0xbe60eb94	-0.21964866
113	0x3eddd9f2	0.43330342
114	0xbeb17b77	-0.3466451
115	0xbec90d98	-0.39268184
116	0xbde9f4cc	-0.114236444
117	0xbf283d5f	-0.65718645
118	0xbf0d6649	-0.552342
119	0xbdb63a36	-0.088978216
120	0xbe29a233	-0.1656578
121	0x3f173a5f	0.5907344
122	0xbf0caaee	-0.5494832
123	0x3f09bcf1	0.53803927
124	0xbea21acc	-0.3166107
125	0x3f02b472	0.5105659
126	0xbed80d2d	-0.42197552
127	0xbebe8b32	-0.37215573

fc2.weight f4 [128, 128]
0	0x3eb5f2e1	0.35536864
1	0x3cbecc99	0.02329092
2	0xbe12fabe	-0.14353463
3	0xbd2b6977	-0.041848626
4	0x3dab00b5	0.08349744
5	0xbe0d66af	-0.13808702
6	0xbd5ddc28	-0.054165035
7	0xbd29b5c3	-0.041433107
8	0xbdc5ea84	-0.09663871
9	0x3d01c205	0.031679172
10	0xbe4c6e6e	-0.19964
11	0xbd9c8751	-0.07642997
12	0xbd8f04dc	-0.06983349
13	0xbddfe5c3	-0.109324954
14	0xbe1e97e3	-0.15487628
15	0x3cfafe37	0.030638797
16	0xbcf8ea68	-0.030385211
17	0xbd96e2a4	-0.07367447
18	0xbe0dbaad	-0.13840742
19	0xbd84dda2	-0.064875856
20	0xbdbe84ba	-0.09302659
21	0xbe4c1c0f	-0.19932579
22	0xbd30ebf9	-0.04319379
23	0xbb45f08c	-0.0030203192
24	0xbe619e28	-0.22032988
25	0xbd071ad5	-0.032984573
26	0x3dc753a7	0.09732752
27	0x3cbda456	0.02314965
28	0xbcab20b0	-0.02088961
29	0xbd707152	-0.05870182
30	0xbcad0df1	-0.021124812
31	0x3ce92339	0.028459178
32	0xbd67bfc9	-0.056579385
33	0xbd0aaa85	-0.033854026
34	0xbdec4fd0	-0.115386605
35	0x3c9502c7	0.0181898
36	0xbd2252b7	-0.039629664
37	0xbd27b8d4	-0.04094775
38	0xbe03c484	-0.12867934
39	0xbe4108ff	-0.18851088
40	0x3da0b01b	0.078460895
41	0x3cc1f607	0.023676885
42	0xbdee3b23	-0.11632373
43	0xbc2ef56d	-0.010678631
44	0xbc07653f	-0.008263885
45	0xbd91e719	-0.071241565
46	0x3c457dbd	0.012053904
47	0xbe19c9cb	-0.15018384
48	0xbe84fb83	-0.25973138
49	0xbd8ed1b6	-0.06973593
50	0x3d4900c1	0.049072985
51	0xbb1d7d7e	-0.0024031098
52	0x3c848e60	0.016181171
53	0xbcc59c4e	-0.024122383
54	0x3dc8f36c	0.09812054
55	0x3c8810b8	0.016609535
56	0xbdc02989	-0.09382922
57	0xbd15aabe	-0.036539786
58	0xbe614c6f	-0.22001813
59	0xbbe3ac54	-0.0069480333
60	0x3c941faf	0.018081514
61	0xba3a0e0e	-0.0007097431
62	0xbdc8f62f	-0.09812581
63	0xbdce54d4	-0.100747734
64	0xbd633d0b	-0.055478137
65	0x3d5aae23	0.053388726
66	0xbdba3524	-0.09092167
67	0xbd84567f	-0.0646181
68	0xbdb89b25	-0.090139665
69	0xbca54a57	-0.02017705
70	0x3c119063	0.008884522
71	0x3cce72ef	0.025201289
72	0xbd21aba7	-0.03947034
73	0xbe334a08	-0.1750871
74	0x3cd64052	0.026153717
75	0xbe3f8d7f	-0.1870632
76	0x3d5f683a	0.054542758
77	0xbe560082	-0.20898631
78	0xbe07850d	-0.13234349
79	0xbc88063e	-0.016604539
80	0xbe8140e4	-0.2524482
81	0x3d9bdff9	0.07611079
82	0xbd0b99f5	-0.03408237
83	0xb9c204ba	-0.00037006085
84	0x3c29ab80	0.01035583
85	0x3cc7732c	0.02434691
86	0xbd6af36a	-0.057361044
87	0x3b80affe	0.00392723
88	0xbde424bb	-0.11139818
89	0xbdb83187	-0.089938216
90	0xbb8fe8cc	-0.004391765
91	0x3c973eb1	0.01846251
92	0x3cb6a90b	0.022297403
93	0xbd3acf0c	-0.04560761
94	0xbe89aaea	-0.2688821
95	0xbdc627dd	-0.09675572
96	0xbd95d9df	-0.07316946
97	0x3ddb579a	0.10710068
98	0xbc27d2f2	-0.010243164
99	0x3e11d6a9	0.14242043
100	0xbc955479	-0.018228756
101	0xbc63c43a	-0.0139017645
102	0x3ca64d2c	0.02030047
103	0xbc22d105	-0.009937529
104	0xbd13b6f0	-0.036063135
105	0xbe3c79b4	-0.18405801
106	0xbe1fbd02	-0.15599445
107	0x3d566a20	0.052347302
108	0x3bd46d5e	0.006482764
109	0x3d098359	0.03357253
110	0x3cd02deb	0.02541252
111	0xbe2e3155	-0.17011006
112	0xbdd56916	-0.10420434
113	0xbe8b4904	-0.27204144
114	0x3d43acd3	0.04777224
115	0xbdcec326	-0.10095815
116	0xbc868dc9	-0.01642503
117	0xbdfedba1	-0.12444235
118	0xbe3698f1	-0.1783178
119	0xbd9c1cf1	-0.07622708
120	0x3dad804c	0.08471736
121	0xbd7a2825	-0.06107344
122	0xbcd593b6	-0.02607141
123	0xbcafe399	-0.021470832
124	0xbdf55ef7	-0.11981004
125	0x3d65050a	0.05591301
126	0xbdfc5464	-0.12320784
127	0x3d5392a4	0.05165352
128	0x3dd52ee5	0.10409335
129	0xbeb7c911	-0.3589559
130	0x3e1672ee	0.1469228
131	0x3e95e7a4	0.2927829
132	0xbed005d0	-0.40629435
133	0x3c5cb62c	0.013471168
134	0xbf1f068b	-0.6211936
135	0x3e2b512a	0.1673018
136	0xbf449be5	-0.76800376
137	0x3eb00887	0.34381506
138	0x3c18eb9a	0.009333516
139	0xbf1e78c4	-0.61903024
140	0xbdfbf2b0	-0.12302148
141	0xbe9556ea	-0.29167873
142	0xbef09f47	-0.4699652
143	0x3f29fa47	0.6639752
144	0x3e6445c3	0.22292237
145	0x3d2a9f7e	0.04165601
146	0x3cbf3488	0.023340479
147	0x3da5c339	0.080938764
148	0xbee15481	-0.44009784
149	0xbfef1424	-1.8678021
150	0xbe88cb33	-0.2671753
151	0xbdaf5252	-0.08560623
152	0x3e197a10	0.1498797
153	0xbda95d7d	-0.082697846
154	0x3e1b481b	0.15164225
155	0x3b86c0d0	0.0041123405
156	0xbdd986df	-0.10621428
157	0xbda73361	-0.081640966
158	0xbfbe4d3e	-1.4867322
159	0x3e059b6d	0.13047571
160	0xbe296222	-0.16541341
161	0xbf1f69e6	-0.62270963
162	0x3da2c245	0.0794721
163	0x3e3550b3	0.17706566
164	0xbd0590d2	-0.032608815
165	0xbea8102b	-0.32824835
166	0x3e549b8f	0.20762466
167	0x3ea42925	0.3206264
168	0xbe6cb901	-0.23117448
169	0xbdb9da88	-0.09074885
170	0x3e8a077c	0.26958835
171	0x3d2a16a3	0.041525494
172	0xbfb7707b	-1.4331201
173	0xbd7547c7	-0.059882905
174	0x3e2b933e	0.16755387
175	0xbdf3f8bc	-0.11912677
176	0xbe8691bd	-0.26283064
177	0x3e48d4e1	0.19612457
178	0x3deb285c	0.11482307
179	0xbf4a9ec8	-0.7914853
180	0x3dc58ac2	0.096456066
181	0xbe8bce84	-0.27305996
182	0xbee27f54	-0.4423777
183	0xbf7ff1eb	-0.9997851
184	0x3e354147	0.17700683
185	0xbebf8108	-0.3740313
186	0x3e30ce22	0.17266133
187	0xbf6cec77	-0.92548317
188	0xbf3313c6	-0.69952047
189	0x3ed907f9	0.42388895
190	0xbeda5bf5	-0.42648283
191	0x3c6d613d	0.014488515
192	0xbfc54046	-1.541024
193	0xbc99d58d	-0.018778587
194	0x3e99fa05	0.30073562
195	0xbdbfae62	-0.09359433
196	0xbf37e2ac	-0.7183025
197	0x3eab6453	0.3347498
198	0xbde7c600	-0.113170624
199	0x3e515489	0.20442404
200	0xbf3ec903	-0.7452547
201	0xbf691ec5	-0.91062576
202	0xbed3d960	-0.4137678
203	0x3d621760	0.055198073
204	0x3e3f67af	0.18691896
205	0xbf80f788	-1.007554
206	0xc0007b8e	-2.0075412
207	0x3e3ce5f9	0.18447103
208	0xbdafd472	-0.085854426
209	0xbf1013f6	-0.5628046
210	0x3cece5fb	0.028918257
211	0xbccc5542	-0.024942998
212	0x3e46d0e0	0.19415617
213	0x3ed9780b	0.42474398
214	0xbf9e8a33	-1.2385925
215	0x3de6259b	0.112376414
216	0xbf2d59ce	-0.67715156
217	0xbe795ab5	-0.24351008
218	0xbf40103c	-0.7502477
219	0xbe12d518	-0.14339101
220	0x3ddb9bba	0.10723062
221	0x3fcf4faa	1.6196187
222	0x3e3352b2	0.17512015
223	0xbdd58641	-0.104259975
224	0x3e67ce2e	0.22637245
225	0x3ec1e086	0.3786661
226	0xbd80fc8c	-0.062981695
227	0x3e8faf3e	0.28063387
228	0x3e5ebfee	0.21752903
229	0x3c4ee7ff	0.012628554
230	0x3e847b88	0.25875497
231	0x3ee4a5db	0.44657788
232	0xbe01d544	-0.1267901
233	0xbf461543	-0.7737619
234	0xbe3cc798	-0.18435514
235	0xbc02451b	-0.007951046
236	0xbfdf3642	-1.7438433
237	0xbededd1b	-0.43528065
238	0xbf741c72	-0.95355904
239	0x3d4b044b	0.04956464
240	0xbe311319	-0.17292441
241	0x3e22aadf	0.15885495
242	0xbef8025d	-0.48439303
243	0xbedac1ab	-0.42725882
244	0x3e37319c	0.17890018
245	0x3dbc6cfd	0.09200475
246	0xbfd0de6a	-1.6317875
247	0xbe04ff4b	-0.12988012
248	0x3fe09256	1.7544658
249	0x3e50c5ff	0.2038803
250	0xbda286c0	-0.07935858
251	0xbc2f02d9	-0.010681831
252	0xbf351eb1	-0.70749956
253	0xb92dbaa2	-0.00016568092
254	0xbf79ebb4	-0.9762528
255	0xbf37479d	-0.7159365

fc2.bias f4 [128]
0	0xbdabb5f4	-0.08384314
1	0x3e9b2785	0.30303589
2	0x3d4b8124	0.049683705
3	0x3e9537e9	0.2914422
4	0xbe117cfb	-0.14207833
5	0xbe0b8de8	-0.13628352
6	0x3e590a81	0.21195413
7	0x3dd010eb	0.10159477
8	0xbd5d75a4	-0.05406727
9	0xbde35d1d	-0.11101744
10	0xbd88a4e7	-0.066720776
11	0x3db81ed3	0.08990254
12	0x3d8252dc	0.063634604
13	0x3e7f1f3d	0.2491426
14	0x3d46903a	0.04847739
15	0x3ea9e51c	0.3318261
16	0x3bbbd720	0.005732432
17	0x3ec2b0f3	0.38025627
18	0xbdbba584	-0.09162429
19	0x3e5b8b0e	0.21439764
20	0xbd87ea1c	-0.0663645
21	0x3d62e279	0.055391762
22	0x3da7e522	0.081980005
23	0x3e69d306	0.22834405
24	0x3dcef64f	0.101055734
25	0xbd096e3f	-0.033552404
26	0x3ef0732c	0.4696287
27	0x3d63b1f1	0.05558962
28	0x3ed8e303	0.42360696
29	0xbd958833	-0.073013686
30	0x3eb5c9ba	0.35505468
31	0x3e99f7bf	0.30071828
32	0x3eace884	0.33771145
33	0x3e757b46	0.23972806
34	0xbd5ef7ca	-0.05443553
35	0x3d7c6ff0	0.06163019
36	0xbcb2d842	-0.021831635
37	0x3dd9c69c	0.10633585
38	0xbcfa6cad	-0.030569399
39	0xbe222cd8	-0.15837419
40	0xbddd8275	-0.10815898
41	0x3d3cd65b	0.046102863
42	0xbc3e3447	-0.011609144
43	0x3d8aeac5	0.0678306
44	0x3ed9dbe8	0.42550588
45	0xbdcc4469	-0.09973986
46	0xbc370faf	-0.011173173
47	0x3ce8ca5e	0.028416809
48	0x3ed6eecf	0.41979071
49	0x3ce333da	0.027734686
50	0x3eb84c93	0.35995921
51	0x3ccf47f2	0.02530286
52	0x3e4b68e5	0.19864233
53	0x3d2d0de5	0.04224958
54	0xbdb95119	-0.09048671
55	0xbc0de50b	-0.008660565
56	0x3e91e2ba	0.2849329
57	0xbd765cd3	-0.060147118
58	0xbd552e36	-0.052046023
59	0x3e1ab288	0.15107167
60	0x3c93ff38	0.018066034
61	0x3dcd96a0	0.10038495
62	0x3cce0823	0.025150364
63	0xbd35a699	-0.044348333
64	0xbce5e7c9	-0.028064625
65	0xbd57bce7	-0.052670386
66	0x3e74422a	0.23853365
67	0x3d23a5ad	0.039952923
68	0xbbd58cab	-0.006517013
69	0xbb54bbeb	-0.003246064
70	0x3c06dfba	0.0082320515
71	0x3e8132cf	0.25234076
72	0xbdc5e385	-0.096625365
73	0x3e25693a	0.16153422
74	0x3e45e1fb	0.19324486
75	0x3dcd4375	0.10022632
76	0xbdddc39b	-0.108283244
77	0x3d8f8ce5	0.070092954
78	0xbbd76e3c	-0.0065744203
79	0xbd5ced84	-0.05393745
80	0xbd78b66b	-0.060720842
81	0xbdb3356e	-0.08750425
82	0x3e534058	0.20630014
83	0xbcc778dd	-0.024349624
84	0xbc300edf	-0.010745733
85	0xbb72c3bd	-0.0037042939
86	0x3d12e82f	0.03586596
87	0x3da51318	0.080602825
88	0x3ed18e7b	0.40929016
89	0xbcef38a2	-0.02920181
90	0x3ea74a6f	0.32673976
91	0xbd1e5727	-0.038657334
92	0x3d288370	0.041140974
93	0x3c733a6c	0.014845472
94	0x3ebb0cbc	0.36533153
95	0xbd799f28	-0.0609428
96	0xbdaa6a1d	-0.08321021
97	0xbcb1bd59	-0.021696733
98	0x3eb33741	0.35003093
99	0x3e268c36	0.16264424
100	0xbdb3197f	-0.08745097
101	0xbb683d78	-0.003543703
102	0xbc9994c7	-0.0187477
103	0xbc76ad7c	-0.01505601
104	0xbda44a74	-0.08022013
105	0xbe021524	-0.12703377
106	0x3ee507ea	0.447326
107	0x3e370a65	0.17875059
108	0xbb44f1fb	-0.0030051458
109	0xbd861d01	-0.06548501
110	0xbcb5f75e	-0.02221268
111	0xbd1d24df	-0.03836524
112	0x3d02ead2	0.031962223
113	0xbd103465	-0.035206217
114	0x3ec76197	0.38941643
115	0x3cfc2f5d	0.030784303
116	0x3da1134f	0.07865011
117	0xbd8ed1fb	-0.06973644
118	0xbdfcb9bf	-0.12340116
119	0x3e908dd1	0.28233197
120	0xbe15f4c5	-0.14644153
121	0xbdb054e7	-0.08609944
122	0xbdcb6c55	-0.09932772
123	0xbba634a7	-0.0050721946
124	0x3e15b867	0.14621125
125	0xbcae889f	-0.02130538
126	0x3d253dc8	0.040342122
127	0xbb8d99e5	-0.004321324

fc3.weight f4 [2, 128]
0	0xbca622ad	-0.020280207
1	0x3ead85a0	0.3389101
2	0x39fc5e7a	0.00048135576
3	0x3f9b2a68	1.2122316
4	0xbcf61eb3	-0.030043935
5	0x3c772400	0.015084267
6	0xbef34a16	-0.4751746
7	0xbc02bd18	-0.007979654
8	0xb91e45c6	-0.00015094047
9	0xbd05b6fe	-0.032645218
10	0x3c308040	0.010772765
11	0xbcc57d17	-0.024107499
12	0xbbb257fe	-0.0054426184
13	0x3de4f097	0.11178701
14	0x3c69ab44	0.014262024
15	0x3f423489	0.7586141
16	0xbc39e47c	-0.011345979
17	0x3f46cef1	0.7765952
18	0xbac5bd2e	-0.0015086287
19	0x3c55483e	0.013017712
20	0xbc0698a8	-0.008215107
21	0xbbfa5d43	-0.007640512
22	0x3d597e02	0.053098686
23	0x3f9f17cb	1.2429136
24	0xbb95e835	-0.0045748004
25	0x3c910a87	0.017705215
26	0x3f9a520b	1.2056288
27	0xb9430b00	-0.00018600747
28	0x3f88e982	1.0696261
29	0x3bda5e48	0.006664071
30	0xbf46d9f2	-0.7767631
31	0x3e06105b	0.13092177
32	0x3f53ce65	0.8273681
33	0x3f96fba1	1.1795541
34	0x3ae56964	0.0017502722
35	0xbd98049d	-0.07422755
36	0xbbf1d2df	-0.007379874
37	0x3fc77178	1.5581503
38	0xbd036b1e	-0.032084577
39	0x3c31d708	0.01085449
40	0xbd1925c8	-0.037389547
41	0xbdc525ad	-0.09626327
42	0x3c93a954	0.018025078
43	0xbe597c40	-0.21238804
44	0x3ed35295	0.41273943
45	0xbd324e19	-0.04353151
46	0x3999255f	0.00029210278
47	0x3c4204e7	0.011841989
48	0x3f752fdc	0.9577615
49	0xbc67ae65	-0.0141407
50	0x3fbd0877	1.4768208
51	0x3c091015	0.008365651
52	0xbf9a7b9b	-1.2068971
53	0xbc4f44fc	-0.0126507245
54	0x3d2d219c	0.04226838
55	0x3c218b23	0.009859833
56	0xbf889e17	-1.0673245
57	0xbd3e3dea	-0.046445765
58	0x3cf79f30	0.030227274
59	0x402a66fa	2.6625352
60	0x3f17de2b	0.59323376
61	0xbc95718d	-0.018242622
62	0xbd0cba84	-0.034357563
63	0xbc6b39b8	-0.014357023
64	0xbc802c87	-0.015646232
65	0x3c4c72a4	0.012478504
66	0x3f6b2d5b	0.9186608
67	0x3d05cf7c	0.032668576
68	0x3d23ff5f	0.040038463
69	0xbb38ca6f	-0.0028196832
70	0x3d5c2c01	0.053752903
71	0xbeca9644	-0.3956777
72	0x3cb8688e	0.022510793
73	0x3ea4fb61	0.32223037
74	0x3dc0f315	0.09421364
75	0x3b256d3e	0.0025242115
76	0x3be8f0c9	0.007108782
77	0x40181665	2.3763669
78	0x3d8a32ad	0.06747947
79	0xbb00dab2	-0.0019661603
80	0xbc84b333	-0.01619873
81	0xbcc83021	-0.024437012
82	0x3f7f9351	0.9983416
83	0x3d00a933	0.03141136
84	0x3d626fbb	0.055282336
85	0x3ca3dd03	0.020002848
86	0xbc0c38d6	-0.008558473
87	0x3d4560c2	0.04818798
88	0x3faddfab	1.3583883
89	0xbad5185b	-0.0016257869
90	0xbf1a4092	-0.60254776
91	0xbb9b2358	-0.004734438
92	0xbcddcc8d	-0.027075076
93	0xbcb3e466	-0.021959495
94	0xbeb0b059	-0.34509543
95	0x3c3a4fbc	0.011371549
96	0x3b61ec2e	0.003447305
97	0x3c8cf5bb	0.017207017
98	0x3faac0c9	1.3340083
99	0xbb7c3f7b	-0.0038489986
100	0x3bc5ebbd	0.006040065
101	0x3c20e457	0.009820065
102	0x3c93ad43	0.018026954
103	0xbd87d8a3	-0.06633117
104	0xbcf1079c	-0.029422574
105	0x3cd4f89f	0.025997458
106	0x3f568aaf	0.83805364
107	0x3dce97db	0.10087558
108	0x3b1e35f6	0.002414105
109	0x3bfebb6c	0.0077738073
110	0x3d7b3db9	0.06133816
111	0xbc2388d5	-0.009981354
112	0x3cebe6a6	0.028796505
113	0xbcc76444	-0.024339803
114	0x3fd1c6f4	1.6388841
115	0x3d226f3b	0.03965686
116	0xbc3e5e0e	-0.011619104
117	0xbc732861	-0.01484117
118	0xbbc67ead	-0.0060575814
119	0xbe6bc310	-0.23023629
120	0xbb288888	-0.0025716145
121	0x3cfe615b	0.031052282
122	0x3d1ad4f0	0.03780073
123	0x3b4210f5	0.0029612158
124	0x3f402315	0.7505353
125	0x3b3e0618	0.0028995331
126	0x3d441090	0.047867358
127	0xbc8f92af	-0.017525999
128	0xbc41b16d	-0.011822087
129	0x3f064a13	0.5245678
130	0x3979bf32	0.00023817716
131	0x3e1fd337	0.15607916
132	0xbcf76e32	-0.030203912
133	0xbb43a8f3	-0.002985534
134	0xbd57b16f	-0.05265945
135	0xbd25e308	-0.040499717
136	0x3bdaa8c3	0.00667295
137	0xbd557060	-0.052109122
138	0xbd901c7c	-0.07036683
139	0xbb188100	-0.002327025
140	0x3c045e3c	0.008079108
141	0x3f659a99	0.8968902
142	0xbbba1fa2	-0.0056800405
143	0x3f9d02ce	1.2266481
144	0x3c88bfaf	0.016692964
145	0x3f7963b4	0.9741776
146	0x3c510afa	0.012758965
147	0x38c573a3	9.415231e-05
148	0xbabc4118	-0.0014362661
149	0x3cdfaf4a	0.027305264
150	0x3dae6735	0.08515779
151	0xbf5506a2	-0.83213246
152	0xbb27736a	-0.002555097
153	0xbc588194	-0.013214488
154	0x3fac62d4	1.346766
155	0x3a8f1619	0.001091662
156	0x3f016d77	0.50557655
157	0xbcea8795	-0.028629104
158	0x3f9fb05d	1.2475697
159	0x3f00d72c	0.50328326
160	0x3f5f8e5b	0.8732659
161	0xbf2864ad	-0.6577862
162	0xbb0bc081	-0.0021324458
163	0x3d379b8d	0.04482608
164	0x39abe9d0	0.00032789866
165	0x3fcf22fd	1.6182553
166	0x3b14cb00	0.0022704005
167	0xbca2b3ab	-0.019861063
168	0xbcacfea5	-0.021117518
169	0xbe3a1a24	-0.18174034
170	0xbd136ddd	-0.035993446
171	0xbe0336ba	-0.12813845
172	0x3faf260e	1.3683488
173	0xbcdddbf1	-0.027082415
174	0xbc50d1a1	-0.012745292
175	0xbd2f4540	-0.04279065
176	0x3f8eb128	1.1147814
177	0xbc826eca	-0.015921969
178	0x3f86defb	1.0536798
179	0xbd15d506	-0.036580108
180	0x3fa718bd	1.3054425
181	0xbcc70b46	-0.024297368
182	0x3d9ee318	0.077581584
183	0xbc0e23d7	-0.008675537
184	0x3f463e17	0.7743849
185	0xbccd7893	-0.025081908
186	0xbc7ee445	-0.015557353
187	0x3f016fc1	0.5056115
188	0xbf1762af	-0.59134954
189	0xbd83eca9	-0.06441624
190	0xbc908f1d	-0.017646367
191	0x3d1710d9	0.0368813
192	0xbd02bf13	-0.031920504
193	0xbc4ad7d7	-0.012380562
194	0xbf422215	-0.75833255
195	0x3c927fba	0.01788317
196	0x3d521353	0.05128796
197	0x3c99828f	0.018739013
198	0x3e858488	0.26077676
199	0x3f6f5a24	0.9349692
200	0xbcfe689a	-0.031055737
201	0x3fa20535	1.2657839
202	0xbf5179d7	-0.8182654
203	0x3bab51ce	0.0052282577
204	0xbb95a66d	-0.0045669586
205	0xbf2d0672	-0.6758796
206	0x3c8bd8d9	0.017071174
207	0x3bf73bf2	0.007544988
208	0xbae053cf	-0.0017114821
209	0xbbc9bf17	-0.006156813
210	0xbf2afe83	-0.66794604
211	0x3b6707fe	0.0035252566
212	0xbd8b6e07	-0.068080954
213	0xbd119aa7	-0.03554788
214	0xba984d5e	-0.0011619737
215	0xbd8aa527	-0.067697816
216	0x3f2e27a6	0.6802925
217	0x39f5bd81	0.00046871233
218	0x3f6c8cb8	0.9240222
219	0xbc2be65d	-0.010491935
220	0x3bcf9fba	0.0063361796
221	0xbb990710	-0.0046700314
222	0x3f8f5606	1.1198127
223	0xbce714fb	-0.028208246
224	0x3c340a8c	0.010988843
225	0xbc6c28a5	-0.014413987
226	0xbe355c0e	-0.17710897
227	0x3ec11c15	0.37716737
228	0xbcc6414e	-0.024201062
229	0x3b9cf273	0.0047896444
230	0xbc5976b7	-0.013272933
231	0x3d79b118	0.060959905
232	0x3cd7f3b3	0.026361322
233	0x3bed4016	0.0072403057
234	0x3fb84565	1.4396178
235	0x3e6d2f2e	0.23162529
236	0xbb229c39	-0.0024812354
237	0xbc9f7030	-0.019462675
238	0xbd2ad41b	-0.041706186
239	0x3c628837	0.013826421
240	0xbca856a8	-0.020549133
241	0x3be0d86c	0.006861737
242	0x3edc9991	0.43085912
243	0xbd27bac8	-0.040949613
244	0xbc8d52d7	-0.017251415
245	0xbcd1e788	-0.025623098
246	0xbcc4345b	-0.023950746
247	0x3f6a3f45	0.9150279
248	0xbce70942	-0.028202657
249	0xbd4785e6	-0.04871168
250	0x3d6864d3	0.05673678
251	0x3b7a3c27	0.0038182826
252	0xbf25bc56	-0.647405
253	0xbd018230	-0.031618297
254	0xbdf5d886	-0.12004189
255	0x3c4ccbaa	0.012499729

fc3.bias f4 [2]
0	0xb9f6f38e	-0.0004710224
1	0xba39560c	-0.0007070012
