dqn_reward_shape.pth (torch, 72290 bytes, 6 tensors)

fc1.weight f4 [128, 4]
000000 04 48 29 3e 5b 9f c0 be 04 18 ab bd e2 f1 9a 3d
       0.16531378 -0.3762158 -0.0835419 0.07565667
000010 95 8b c0 be 4f 78 6d 3e 7c a3 1e c0 7c 08 ae 3e
       -0.37606493 0.23190425 -2.4787283 0.33990848
000020 32 6d a0 bd 41 79 63 3e b2 8d bb 3e 7a 91 ae 3d
       -0.07833327 0.22214223 0.36631542 0.08523841
000030 e6 25 0a be ea 92 df be 82 3f 9d bd 4a 00 e1 bd
       -0.1349102 -0.43666774 -0.07678129 -0.10986383
000040 57 b0 97 3e 30 1a 01 bf 01 92 af 3f 30 1c 29 bf
       0.29626724 -0.50430584 1.3716432 -0.66058636
000050 84 16 fc 3e ca b8 1a 3e de ec 4b 3f ab 48 e4 3e
       0.49235928 0.15109554 0.79658306 0.4458669
000060 07 14 67 3e 75 53 ff 3b 44 f1 e7 3f ed 13 a7 3e
       0.22566234 0.0077919313 1.8120503 0.3263239
000070 ce c6 cc 3e 36 aa 85 be de f1 8c 3f 92 2c c7 3d
       0.39995426 -0.26106423 1.1011312 0.09725298
000080 09 6e 3d bd e4 b0 1b 3e ac 2b cd 3f 6c 1d 55 3f
       -0.046247516 0.15204197 1.6028953 0.8324802
000090 5e 19 4c 3b da 82 62 be db 33 8e bc 84 e1 b5 be
       0.003114305 -0.22120228 -0.017358711 -0.35523617
0000a0 6b af f1 3d 31 69 20 be 5a df 33 be 00 b3 6d 3e
       0.118010364 -0.15665127 -0.1756567 0.23212814
0000b0 86 27 c4 3e 58 3a 65 3d 6d 31 ba bf 57 f9 ac be
       0.38311404 0.055963844 -1.4546334 -0.3378398
0000c0 40 29 96 3e 3d 55 96 be b0 e4 47 bf f5 d4 a5 3d
       0.29328346 -0.29361907 -0.78083324 0.08097259
0000d0 02 93 51 3f ca 83 8d bd 88 29 a1 bc 82 25 1a 3d
       0.8186494 -0.069099024 -0.019673124 0.037633426
0000e0 9f 0f 55 bd 4d 51 ca 3d 27 41 c8 3f 0d cd 03 3f
       -0.05201685 0.09878788 1.5644883 0.5148476
0000f0 ec 96 55 3d 1f 09 91 bd 9d 66 35 bf a7 59 fa be
       0.052145883 -0.07081818 -0.708597 -0.48896524
000100 93 53 8a 3c da 99 c3 3c d6 ec 0b be 38 a6 90 be
       0.016885554 0.023877073 -0.13664564 -0.28251815
000110 c7 36 87 3e f8 7d e9 3d ed de 34 3d 90 b5 8c be
       0.2640898 0.1140098 0.04415791 -0.2748227
000120 5b a3 19 3f f8 9d 29 be 6a b1 be 3d c5 58 0a 3f
       0.60014886 -0.16564167 0.09311183 0.540417
000130 2b cb f6 3d 2d 44 23 3c c0 49 90 3e db 94 f5 bd
       0.1205047 0.009964985 0.28181267 -0.119912826
000140 2c fb 9b 3d 32 77 0a bf b6 5a 82 bd 64 a5 b4 bd
       0.076162666 -0.5408813 -0.06364958 -0.08820608
000150 0f c5 20 3d 2d fa 9d 3c 44 45 c8 3f 71 e6 ec 3e
       0.03925043 0.019284332 1.5646138 0.46269563
000160 0e a1 83 3e 8d ac e6 bc 04 44 a6 be 50 3e 9b be
       0.25708812 -0.02815845 -0.32473767 -0.30320978
000170 aa 84 3d 3e c3 08 2c be a8 42 6e bf 6d e6 3c bf
       0.18507639 -0.16800217 -0.9307046 -0.737891
000180 95 de 05 bf ba 38 4e 3e 6c c0 6c 3e 7a a5 06 3f
       -0.5229276 0.20138827 0.23120278 0.5259625
000190 aa bb 42 bf fa 0e b4 be cf 56 19 bd 6a e5 fb bb
       -0.760676 -0.35167676 -0.037436303 -0.0076872604
0001a0 65 67 82 bd 8b 5b 92 be 22 3a d3 3e f1 30 23 be
       -0.06367377 -0.28585467 0.4125529 -0.15936638
0001b0 f7 40 a9 be 4c 5b 79 3e 30 bc 69 3e 12 06 72 3f
       -0.33057377 0.24351233 0.22825694 0.9454051
0001c0 a7 cf 58 3d d9 7e 93 bd 05 4d 95 bf 30 f2 24 bf
       0.052932408 -0.07201929 -1.166413 -0.6443205
0001d0 92 19 29 bf de 36 25 be 6d f0 db bd ac 16 67 3e
       -0.6605464 -0.16134211 -0.10739217 0.22567242
0001e0 26 05 b4 3d c3 52 34 be 76 a3 bb 3e f7 93 57 bf
       0.087900445 -0.17609696 0.36648148 -0.8421015
0001f0 62 b8 5d 3e 72 6c 56 be ed 22 c3 be f6 39 ce be
       0.21652368 -0.20939806 -0.38112584 -0.40278596
000200 81 4f e1 3e 25 20 2e 3d 8f 1d c7 be 39 80 68 be
       0.4400597 0.042511124 -0.3888974 -0.22705163
000210 0c e2 73 be b4 61 32 3e f8 f9 cb 3f 4c 71 27 3f
       -0.23816699 0.17420083 1.593566 0.6540725
000220 de cc 4d be 61 a2 23 3e 35 48 b9 3e 61 d7 9d bd
       -0.20097682 0.15979911 0.36187902 -0.07707096
000230 11 96 f1 3b 61 e8 c5 3d a4 0d 1d 3e 45 6a 15 be
       0.0073726256 0.096634634 0.15337235 -0.1459132
000240 4b be c4 be a5 0b f8 bb 51 4d 80 3f ce 90 e5 3e
       -0.38426432 -0.0075697475 1.0023595 0.4483704
000250 41 9a de 3e 22 d3 16 3c fe a2 bd bf ac d0 1c bf
       0.4347706 0.009205611 -1.4815366 -0.6125591
000260 d8 dc d5 be 16 22 f7 3d b4 12 03 3f 2a 65 80 3c
       -0.41770053 0.12067048 0.51200414 0.015673239
000270 e1 44 46 bf 9e 34 24 bd f7 98 07 3f 94 0e 5e be
       -0.7744885 -0.040089242 0.5296778 -0.21685249
000280 5b 04 91 be d9 b7 84 3d 5d 9f 7b bf dd ad 12 bf
       -0.28323635 0.06480379 -0.98290044 -0.57296544
000290 88 27 27 3e c8 ca 20 be fb 50 f5 be 00 c6 1a bf
       0.16323674 -0.15702355 -0.47913346 -0.60458374
0002a0 ac ea f4 3e 32 96 03 bd 2c 42 f8 be b5 c5 0e bf
       0.4783529 -0.03212566 -0.48487985 -0.55770427
0002b0 dc 2e 2b 3f 75 fb 3e 3b 36 35 c8 be bf 40 79 bd
       0.66868377 0.002914158 -0.39103097 -0.060852762
0002c0 96 81 53 bf 04 ed b8 be d1 26 8e 3f 30 e0 02 bf
       -0.8261961 -0.3611833 1.1105596 -0.5112333
0002d0 c1 4e 51 3f 78 aa 5f 3e 1f 72 e1 3d 92 07 fd 3e
       0.81760794 0.21842372 0.11008095 0.49419838
0002e0 78 6e b0 be 05 24 9d 3e b9 21 9e be 76 f6 63 3f
       -0.3445928 0.30691543 -0.30885103 0.89047945
0002f0 e6 88 9e 3e 15 13 00 3f 7e 6d 5e 3f eb ec 72 3f
       0.3096382 0.50029117 0.8688582 0.9489276
000300 1a 1f 49 3f 36 67 5a be ea 7e 75 be c7 a0 0b bf
       0.7856308 -0.21328434 -0.23974195 -0.545422
000310 4e 77 10 3e 4c e4 3a be 91 b3 f4 3d 73 da fd be
       0.14108011 -0.18251151 0.11948312 -0.49580726
000320 76 34 13 3e 53 cf 50 3e 4c 10 e9 bf 31 49 c7 be
       0.14375481 0.20391588 -1.8208098 -0.38923028
000330 fb ac 5a bf 70 13 80 be d1 bf 33 3e c3 2d 9d be
       -0.854202 -0.2501483 0.17553641 -0.30698976
000340 1b a3 4f 3e 30 f0 83 3e fb c2 16 3e bf 0c 14 3e
       0.20277064 0.25769186 0.14722817 0.14457987
000350 16 4a 04 bf b1 3a 0d 3f 52 38 69 be cd 02 08 be
       -0.51675546 0.5516768 -0.2277539 -0.13282318
000360 9f 7b 18 3f 44 8b 41 3d ee 01 8a bf ba 23 d1 be
       0.5956363 0.047251955 -1.0781839 -0.4084757
000370 0b 23 b9 3d 84 77 b6 3d ae 37 ee bf bd 27 97 bc
       0.09039887 0.089095145 -1.8610742 -0.018451566
000380 f3 d3 04 3f 30 30 3e be d3 f5 57 bf 91 24 35 bf
       0.5188591 -0.1857307 -0.84359473 -0.7075892
000390 f3 67 f3 be b3 a4 c2 3c d5 21 1f bf 90 f1 30 bd
       -0.47540244 0.023760175 -0.62161 -0.043199122
0003a0 6a 2d 3b 3f 10 4e cf 3e dc f8 72 3f 98 1f 00 3f
       0.7311617 0.40489244 0.9491098 0.5004821
0003b0 bf 29 2b 3e 1e 69 49 be ec 0d f6 3f 8c fa 86 be
       0.16715144 -0.19669005 1.9222999 -0.26363027
0003c0 a7 05 06 3f 0e 48 9c bd 93 67 02 c0 43 0c f8 be
       0.52352375 -0.07630931 -2.0375717 -0.48446855
0003d0 3c 2c 09 3e 0a b0 9b 3e 3b a4 7f 3d b5 25 16 bf
       0.1339578 0.30407745 0.06241248 -0.58651286
0003e0 d8 cf c6 3e 98 30 e0 3e 89 68 a4 3e ce b2 70 bd
       0.38830447 0.43787074 0.32111004 -0.05876427
0003f0 11 f7 ad bc 74 63 94 3e df 96 9f be c8 72 b6 3e
       -0.021235975 0.28982127 -0.31169793 0.35634446

fc1.bias f4 [128]
000000 f3 fc e4 3e 95 18 7d be f5 99 21 3f 48 7f 10 3f
       0.44724235 -0.24716409 0.63125545 0.56444216
000010 80 da cf bd 68 68 e3 be ad 68 92 be 92 e8 ce be
       -0.101490974 -0.44415593 -0.28595486 -0.40411812
000020 ab 4e 05 bf cc f1 0d 3f 6e 72 c3 3e 59 b4 f0 be
       -0.5207316 0.5544708 0.3817324 -0.47012594
000030 33 56 16 be 37 0b 2d bd 93 b0 e7 be 6d c7 b5 be
       -0.1468132 -0.042247023 -0.45251903 -0.35503712
000040 02 89 2e 3f 15 23 d2 3e 5f e9 39 be f4 a2 10 3f
       0.6817781 0.4104239 -0.1815543 0.56498647
000050 e8 26 a9 3e 22 66 b2 be 1e dd 8b 3e 8c d8 07 3f
       0.33037496 -0.34843546 0.27317137 0.530648
000060 f5 91 9a 3e 24 c5 48 bf 0c 9b 28 3f 23 35 c5 be
       0.3018948 -0.7842581 0.6586158 -0.38517103
000070 42 89 82 3d d0 73 d0 be 60 54 61 be dc 42 0b 3f
       0.06373836 -0.40713358 -0.22004843 0.54398894
000080 26 ab bc 3e c5 de cc be 5a 10 1e 3f 2f 25 2a 3f
       0.36849326 -0.4001371 0.617437 0.6646299
000090 6a 79 08 3f ab 69 f8 be 41 93 29 3f 5b 87 01 bd
       0.53310263 -0.48518118 0.66240317 -0.031623226
0000a0 bf 63 0d bd e4 60 bf 3e 93 d0 ef be 24 3e ad 3e
       -0.034518953 0.3737861 -0.46838817 0.33836472
0000b0 a7 8c 53 be 01 3c ca 3d af 6d a5 be 4e b6 10 bf
       -0.20659123 0.09874726 -0.32310244 -0.56528175
0000c0 5a 02 1d 3e 4d 63 16 3f 10 1b 0a bf ca 44 53 bd
       0.15332928 0.5874527 -0.53947544 -0.051579274
0000d0 75 23 e6 3e 4a 92 a8 be ce c4 0d bf 82 0b 55 be
       0.44948927 -0.3292411 -0.55378425 -0.20805171
0000e0 b2 48 aa be 0e 4c 6d ba d3 03 22 3c a7 78 81 be
       -0.33258587 -0.00090521656 0.009888607 -0.25287363
0000f0 e7 66 3f be 73 09 a2 3e 46 d7 e6 be 20 79 ca 3e
       -0.18691598 0.31647834 -0.45086116 0.39545536
000100 50 5c 13 3e 14 8b 68 bd a7 29 ed be 8e 31 77 3e
       0.14390683 -0.05677326 -0.4632084 0.24139997
000110 23 41 dc be 6a c8 ce 3e d2 c6 6a be 6b cd 8a 3e
       -0.43018445 0.4038728 -0.22927406 0.27109846
000120 c4 0d e1 be c6 eb f4 be 47 eb 3f bf 17 45 e1 be
       -0.43955815 -0.4783613 -0.7496838 -0.43998024
000130 7b ce c5 3e 75 b1 ea 3b 09 cb 06 bf 25 86 6d bf
       0.38634095 0.007162268 -0.5265356 -0.92782813
000140 0f 55 05 bf 86 d6 0a bf cd 4f d7 be d0 66 f1 be
       -0.52082914 -0.54233587 -0.4205307 -0.47148752
000150 69 25 36 3f 3f 44 a6 be 2f de fa be d3 4c 4b 3e
       0.71150833 -0.32473943 -0.48997638 0.19853525
000160 d7 1d 28 bf 0b 8d 13 be e2 ce c9 be 47 97 f6 3e
       -0.6567053 -0.14409272 -0.39415652 0.4816229
000170 94 f5 85 be 3c 91 e7 be c5 e9 ac 3e 66 c2 bb be
       -0.26163924 -0.45227993 0.33772102 -0.36671752
000180 0d ed 9e be e1 ed f3 3e 3b 87 93 bd 8f 4f 67 be
       -0.3104023 0.47642425 -0.072035275 -0.22588943
000190 4c e2 1b 3f 00 8a 31 3f 6b b5 5a be 8c 3e 2c bf
       0.60892177 0.69351196 -0.21358268 -0.6728294
0001a0 39 54 0c 3f 66 81 fb be 46 0c f4 be da 26 c0 be
       0.54816014 -0.4912216 -0.47665614 -0.3752964
0001b0 42 f9 93 be 69 e3 a9 be aa 84 51 3e d8 37 30 bf
       -0.28901106 -0.33181313 0.20460764 -0.6883521
0001c0 d3 6a 3d bd 1c f7 f1 3e f9 4e b2 be 49 70 4e bf
       -0.046244454 0.47258842 -0.34825876 -0.80640084
0001d0 78 69 e3 3e 45 0c 23 bf cc 5b f9 be 36 56 f1 3e
       0.44416404 -0.63690597 -0.48702848 0.47136086
0001e0 4a 9f 29 be 6c f9 20 3e 08 ca 1e bf 7f 39 2a 3f
       -0.1656467 0.15720147 -0.62027025 0.6649398
0001f0 06 89 be be 0d a6 3b 3f 05 2f be be c6 6a c8 be
       -0.37213916 0.7330025 -0.37145248 -0.39143962

fc2.weight f4 [128, 128]
000000 b3 01 9b 3d 07 19 31 bd c1 f3 13 3c 1c e5 0b be
       0.075686835 -0.04323676 0.009030283 -0.13661617
000010 fc 71 12 3e 93 fc a7 bd 92 7f 04 3b 3c 5a 4e bd
       0.14301294 -0.082024716 0.002021764 -0.050379023
000020 8c 85 86 3d 6c 65 c6 3c d2 93 d8 bd 88 64 8b bd
       0.06568441 0.024218284 -0.105750695 -0.06806284
000030 bc 61 28 bd d9 6c 9e bd 0a 50 39 3e d7 3e be bc
       -0.04110883 -0.07735605 0.18096939 -0.023223324
000040 24 f9 90 bd c6 7f 31 bd 3a ef c6 3d ac 96 23 be
       -0.0707877 -0.043334745 0.097135976 -0.15975446
000050 76 fb 18 bc 7f 63 da bd b4 8f bb bd 71 bc 9a bc
       -0.009337297 -0.106635086 -0.091582686 -0.018888684
000060 73 48 92 3e b9 a0 c3 bd 8c eb 55 be ba 30 f3 3c
       0.285709 -0.0955214 -0.20890635 0.02968632
000070 52 d3 c2 bd 40 a4 34 be ed 91 16 be de 96 1e 3c
       -0.095129624 -0.17640781 -0.14704104 0.009679524
000080 4e eb 9b bd fb 51 09 be 64 2b 18 bd 99 81 86 bd
       -0.0761324 -0.1341018 -0.037150756 -0.065676875
000090 0f 30 9e bd aa 2a 08 be c9 84 f2 bc 8a b8 86 3c
       -0.0772401 -0.13297525 -0.029604333 0.016445417
0000a0 64 11 82 bd 1d 17 9a 3d ca 09 58 be e1 06 9e 3b
       -0.06350973 0.0752394 -0.21097484 0.0048225974
0000b0 94 6a 4b 3d 66 48 19 3e 74 60 56 bd 5d 80 86 bd
       0.049662188 0.14969024 -0.05233808 -0.06567452
0000c0 fc 45 a9 3d d7 a3 0b be 54 7e ba bd 0b 99 4c 3d
       0.082653016 -0.13636719 -0.091061264 0.04995064
0000d0 ac 19 8e 3d cd 0f df 3d 70 f3 5b bd a3 e1 30 3c
       0.0693849 0.10891686 -0.053698957 0.0107959835
0000e0 b6 e8 95 3d a4 ac cf bd 97 14 e5 bd e7 c4 1e be
       0.07319777 -0.101403505 -0.11185568 -0.155048
0000f0 1a d0 8b ba 56 14 e1 bd b3 b2 b9 bc 3e 6c 0c be
       -0.0010666877 -0.10990207 -0.022668218 -0.13713166
000100 29 35 9c bd 96 57 81 bc 22 2c 65 be 74 cc 39 be
       -0.07627327 -0.015788835 -0.22380117 -0.18144399
000110 ba 85 9d bd dd df e0 be 52 af 64 3b b2 39 d9 bc
       -0.07691522 -0.43920794 0.0034894538 -0.02651677
000120 01 57 eb bd 11 0a 0d be c4 8f d5 bd f6 7e 8d bd
       -0.11491204 -0.13773371 -0.10427812 -0.069089815
000130 05 4e 46 3e f9 dc 57 bd 9b 3e 94 be b9 66 c2 3d
       0.193657 -0.05270097 -0.28954014 0.09492249
000140 9e c9 93 be 7f f4 98 3c 85 c0 c9 3d 50 13 f1 bc
       -0.2886476 0.018671272 0.09851173 -0.029428154
000150 38 dd 43 3c b7 d9 d6 bd 77 bc 9e 3d 2e 0c df bd
       0.011954598 -0.104907446 0.077507906 -0.10890995
000160 f0 5d 42 be 73 92 55 bd 39 dd da bc 4c 53 0a 3d
       -0.18981147 -0.052141618 -0.026716815 0.033770844
000170 f8 0b 9e be a8 f8 26 bd 14 d5 43 3e 7b 88 12 3e
       -0.30868506 -0.04076448 0.19124252 0.14309876
000180 22 3c 09 3e 88 ef a3 3d ab e7 82 bd 9a 5b 49 3e
       0.13401845 0.08004671 -0.063918434 0.1966385
000190 5f 76 2b be da 18 88 3c 6b b9 60 3c 29 75 0e bd
       -0.16744374 0.016613413 0.013716082 -0.0347797
0001a0 4a ec 03 be 5f 4d e5 3c da 00 f5 bd 0e d4 03 3d
       -0.12883106 0.027990995 -0.11963053 0.032184653
0001b0 65 fe 30 be 67 0c 4d 3d a9 1f c5 3b f4 76 5e be
       -0.17284544 0.050060656 0.006015737 -0.21725065
0001c0 e3 af 67 be 46 9d 83 bd e8 12 7c be 7f 04 f2 3d
       -0.22625689 -0.06426482 -0.24616587 0.11817264
0001d0 78 49 97 bd 92 96 5a be 58 8a 62 3e 6e 21 7c bd
       -0.0738706 -0.213465 0.22123086 -0.06155532
0001e0 3a 40 36 be eb ab da be 1f 12 a4 3d 7e 6a 92 bc
       -0.17797938 -0.42709288 0.08011269 -0.017873045
0001f0 64 83 4a bd 21 25 4e be da 31 5b bc ba 38 00 be
       -0.04944171 -0.20131351 -0.013378585 -0.1252164
000200 62 c3 b0 3c a2 b6 99 bd 29 e9 50 bd 32 fc a2 3d
       0.02157754 -0.075055376 -0.05100361 0.07958259
000210 14 e0 e4 bd 57 96 83 3d 28 96 64 bd 50 73 0a 3d
       -0.11175552 0.064251594 -0.055807263 0.033801377
000220 e3 ae cc bc 17 a4 ad 3d 4e c7 4f bc 89 02 29 bd
       -0.024985736 0.08478563 -0.012681795 -0.041262183
000230 19 ae 52 bd 9f b3 6c 3d 46 eb e2 bd 79 86 e0 3c
       -0.051435564 0.057788488 -0.11080031 0.027407872
000240 a8 53 b3 3c 37 61 f0 bd 16 e2 16 bd 6a 93 45 bd
       0.021890476 -0.11737292 -0.036836706 -0.048236288
000250 ff 52 55 bd cc cf 7c bd 17 23 ec bc 12 a7 b3 3b
       -0.052081104 -0.061721608 -0.028825326 0.005482563
000260 48 b9 31 3d b4 d3 c8 bc 4b 70 56 3d 64 91 4a bc
       0.04338959 -0.02451501 0.052353185 -0.012363765
000270 54 7d 64 3d 18 16 a9 3a 42 df b2 bd d2 9f a9 3d
       0.055783585 0.0012900261 -0.08733989 0.082824364
000280 71 ab a1 3c 28 f1 08 3d d4 14 e8 bd 60 87 aa bd
       0.01973507 0.03343311 -0.11332098 -0.08326602
000290 d6 14 72 bd 97 32 31 bd 3d 10 43 bd 9e dc 85 bd
       -0.059101902 -0.043261137 -0.047622908 -0.0653622
0002a0 a7 17 cf bd 7b cb a1 3d 20 3a 86 3c 63 18 59 3c
       -0.10111933 0.07900139 0.016385138 0.013250443
0002b0 a1 c0 63 bc ae 03 f7 3b 91 d2 f6 bc e9 1c d3 bd
       -0.013900907 0.0075382804 -0.030129703 -0.103082485
0002c0 60 ff 27 bd 1a 19 44 bc 01 b3 93 bc d6 72 74 bd
       -0.04101503 -0.011968875 -0.018029692 -0.05967983
0002d0 13 53 85 3c 97 a4 69 3c 85 51 1a bd a6 76 ba 3c
       0.016274964 0.014260433 -0.0376754 0.022761654
0002e0 ec 22 6f bd 96 21 08 3c 42 d9 59 3d 0e 32 a6 bd
       -0.058382913 0.008308789 0.05318571 -0.08115016
0002f0 cd 7c 2e 3d 4a 1b 77 bd d0 1b 7d bd b6 08 a3 3d
       0.042599488 -0.06032876 -0.061794102 0.07960646
000300 1d df 89 3d 8e 45 8b bd d0 f9 4e 3c dc 28 e0 3c
       0.067320086 -0.06800376 0.012632802 0.027363233
000310 50 69 c8 bd a7 3f 53 bc f6 15 90 bc 80 83 b3 bd
       -0.09785712 -0.012893594 -0.017588597 -0.08765316
000320 a1 58 ec bc ae d8 9d 3d 6f 71 df 3c cc 3b 44 3d
       -0.028850855 0.07707344 0.027275769 0.04790859
000330 5c 68 5f bc fb a6 cf 3c 5c 61 f6 ba f6 4d 3f bc
       -0.013635721 0.025348177 -0.0018797326 -0.011676302
000340 10 0f e6 bd dc 63 d2 3b 37 6a 95 3d 04 19 5b bd
       -0.11233342 0.0064205956 0.072956495 -0.053490654
000350 77 2b a4 bc c9 47 f5 3c 32 0e 54 bc e4 d8 9e 3d
       -0.020040257 0.029941456 -0.012942838 0.07756212
000360 34 b9 55 bd 30 05 83 3c b1 e1 bc bd bb 01 b7 bc
       -0.052178577 0.015993685 -0.09222735 -0.022339692
000370 83 ec 3b bc 18 eb 02 3d 64 00 e6 3b 07 c9 81 3d
       -0.011469963 0.031962484 0.0070190895 0.06337171
000380 2c 1d 87 3d 89 2b ef bc 80 98 22 bd ff 97 08 3d
       0.06597361 -0.029195564 -0.039696217 0.03334808
000390 38 85 6f bb cd 97 02 bd 58 b3 07 ba d6 42 47 3d
       -0.003654791 -0.03188305 -0.00051765656 0.048647724
0003a0 52 04 d9 39 75 7f cd bd c6 bb 84 bd f2 26 a4 bd
       0.00041392684 -0.10034076 -0.064811274 -0.08015241
0003b0 49 2f 24 3c 39 47 5f bd aa 9f b7 bd b2 b2 6b 3d
       0.010021039 -0.054511283 -0.089660004 0.057543464
0003c0 2d a8 ec bb 71 36 c9 3c 2b d2 b8 bd b1 e9 dc bc
       -0.0072221966 0.024562092 -0.09024461 -0.026966901
0003d0 f3 49 88 3b 6e 49 1d 3c d5 36 e5 bd 2a 9d 97 bd
       0.004159206 0.0096000265 -0.11192099 -0.074030235
0003e0 aa e3 d7 bb c7 38 6a bb 82 d1 da bc 43 96 45 3d
       -0.006588419 -0.0035739408 -0.02671123 0.048239004
0003f0 95 f4 7b bd 73 a3 b9 bd df fb 88 3d 1b 4d ba bd
       -0.06151255 -0.090643786 0.066886656 -0.09096738

fc2.bias f4 [128]
000000 2e 04 73 bd 79 fa 53 bc bd c4 ae 3c 51 dd fe 3b
       -0.059330158 -0.012938135 0.021334046 0.007777848
000010 d9 16 d3 bc 68 46 d2 bd 76 5e 2b 3d 0f 14 e6 3d
       -0.02576773 -0.10267335 0.04183813 0.112342946
000020 a7 7b 67 bd b4 10 2f 3d fd 68 a6 3e 8b 34 27 3e
       -0.05651441 0.04274054 0.32501975 0.16328637
000030 5d e8 e1 3c b2 71 48 bd 9d 83 38 3b 78 fe 23 3e
       0.02757662 -0.048936553 0.002815462 0.16015041
000040 c1 a1 0e 3c 15 06 d5 3e f2 0a 9a 3e ae a0 17 3d
       0.008705557 0.41606203 0.30086476 0.03701847
000050 fb e3 d4 bd 5d 77 a5 3e 61 ea e2 3c ad 6d 89 bd
       -0.10395046 0.3231763 0.027699651 -0.06710372
000060 21 4d 00 3e 17 9d c0 3e 6c 5d c3 3c 1a a3 1b bc
       0.12529422 0.3761985 0.023848258 -0.009499336
000070 96 df 97 3d 95 83 a7 bd 6d e8 06 be 30 e0 f2 3d
       0.074156925 -0.08179394 -0.13174601 0.118591666
000080 81 18 88 3e b5 03 a5 3d 9c c4 18 bc 36 d2 7f 3e
       0.26581195 0.08057348 -0.009324219 0.24982533
000090 39 cf 89 bd 0b 21 44 3c 1e a6 9e bc 92 19 c0 3d
       -0.06728978 0.011970769 -0.01936632 0.09379877
0000a0 be 30 59 bd cb 99 94 3d 60 62 d1 3d 57 13 ae 3c
       -0.053025 0.07255896 0.10223842 0.021249456
0000b0 1f 87 3f 3d 1e d4 24 3e 04 d8 15 3e 0b 70 8c 3c
       0.04675972 0.16096541 0.14633185 0.01714327
0000c0 3a 0b a7 bc 0f de 3e 3d 67 75 96 bd a9 b8 98 3e
       -0.020391095 0.04659849 -0.073466115 0.29828385
0000d0 e3 57 d5 3d 07 dd 50 3e bd 4f 3e 3d 76 29 3e bd
       0.10417154 0.20396815 0.046462763 -0.04642626
0000e0 77 5f e1 3c 5d 0e da bc bf 58 91 bd b0 56 35 3d
       0.027511341 -0.026618177 -0.07097005 0.044272125
0000f0 4b 12 cc 3c b8 0e d3 3d 7b 1a 1e 3e 00 9e 43 bd
       0.024911067 0.10305542 0.15439789 -0.047758102
000100 1c 89 b8 bc de 67 1e bd 74 25 b5 3c 02 09 e6 3c
       -0.022526316 -0.038673274 0.022112586 0.028080467
000110 3b f2 c8 3e 74 cd e9 3d 83 15 96 3d 0a 3b fb 3e
       0.39247307 0.1141614 0.07328322 0.4906848
000120 b3 ff 60 bd 66 ba c9 3b e0 f7 0e 3f a8 d1 ad 3e
       -0.054931354 0.0061562536 0.5584698 0.33949018
000130 da fd a9 bd 75 3d f2 3d aa c6 63 3d b5 b7 46 bc
       -0.083003715 0.11828128 0.055609383 -0.01212876
000140 b9 77 db bd e6 fa 27 3d fe 52 27 3d 4e 62 0f ba
       -0.10716195 0.04101076 0.040850632 -0.00054696656
000150 67 0d 9d bc 64 0c 00 3c 26 81 1b 3c 9f 58 36 3d
       -0.01917143 0.007815454 0.009491241 0.04451811
000160 a4 fd df 3e 12 b1 0f bd 7f 80 37 3d 6a d3 83 bd
       0.437482 -0.035080977 0.044800278 -0.064368084
000170 81 36 cf 3c ce f2 2b 3c c1 d3 31 3d 92 f1 88 3d
       0.025294544 0.010494901 0.043414835 0.06686701
000180 85 ae b4 bd f6 16 b5 bd 5d 46 40 3d 7c d2 30 bd
       -0.088223495 -0.0884227 0.046942104 -0.043169484
000190 9d 59 a4 bd 13 32 47 3e b3 d5 93 3e 0f 70 3c bd
       -0.08024905 0.19452696 0.28873977 -0.046005305
0001a0 bc 31 d2 bd 34 f6 d0 bd d7 39 fb 3e d8 ee c4 bd
       -0.10263392 -0.102032095 0.49067566 -0.09615868
0001b0 41 af 66 3e bc 9d 7c bd da c7 93 bc 10 cd 4e bc
       0.22527792 -0.061673865 -0.018039633 -0.012622133
0001c0 01 63 a6 3c db d6 56 bb fd 54 81 3e ec b6 28 3d
       0.02031088 -0.0032781872 0.25260153 0.041190073
0001d0 b0 a6 37 3d 28 89 b3 bd 00 12 d1 bd 60 da 37 bd
       0.0448367 -0.08766395 -0.10208511 -0.044885993
0001e0 fc 7a a0 bd 86 e8 d6 3d 0e 48 17 be 1b 1a 8f 3d
       -0.078359574 0.10493569 -0.1477358 0.06987401
0001f0 77 57 b1 bd 36 2a ba 3d 36 d3 d5 bc 1f 0e 13 3e
       -0.08659261 0.09090082 -0.02610169 0.14360856

fc3.weight f4 [2, 128]
000000 2a 61 61 3c 91 92 2d bc 2d 4e 0d bc 68 41 16 3f
       0.013756076 -0.010594026 -0.008624596 0.5869355
000010 e2 3d 3c 3b 0c f8 14 3d 7b c1 8a bc 0d aa 21 bd
       0.0028723408 0.03636937 -0.016937962 -0.039468814
000020 78 5c 81 3c 40 c9 ff be d6 68 a5 3f 1f 6c 3c bf
       0.015791163 -0.4995823 1.2922618 -0.7360248
000030 58 e8 a6 3b 1a db ed 3b 20 37 23 3d b5 27 4f 3f
       0.0050936155 0.007258785 0.039847493 0.80919963
000040 c0 0e 56 bc 3f ae da bc f3 9e 56 3e 3c 0b 90 3d
       -0.01306504 -0.026694415 0.20959072 0.07033393
000050 75 bc 2d 3c e0 bc 82 3f 86 64 5d 3d 0b af 60 3d
       0.010604014 1.021389 0.054050945 0.054854434
000060 9c 67 55 bb 08 69 6c 3f 52 ab e4 3c 7c 03 de b9
       -0.0032562977 0.92347765 0.027913723 -0.00042345736
000070 a0 5a 19 be 89 ad ca bb b1 6e 1f bb 41 18 c1 bf
       -0.14975977 -0.006185238 -0.0024327452 -1.5085527
000080 19 10 00 3f b5 6b 56 40 46 25 0b bb c8 93 88 3f
       0.50024563 3.350324 -0.0021231933 1.0670099
000090 a8 32 f1 3b 8f 66 0e 3c ce 42 95 3c 80 b8 d0 bf
       0.007360775 0.008691444 0.018220332 -1.6306305
0000a0 62 23 14 3d 78 62 3e be 88 26 88 bb d1 16 47 bc
       0.036166556 -0.1859225 -0.004154984 -0.012151436
0000b0 50 d9 77 bc 37 b2 ba bd 16 71 8a 3c 32 17 1b 3d
       -0.015127495 -0.09116023 0.016899627 0.037863918
0000c0 07 f4 c6 3c ac b5 86 bc 00 02 a5 3d da ee 12 3f
       0.024286283 -0.01644405 0.08057022 0.5739571
0000d0 06 a3 f0 bc 93 76 72 3e 98 c0 27 bd e4 4a 0f bd
       -0.02937461 0.23678045 -0.040955156 -0.03498353
0000e0 11 23 52 bc 30 3e 3c 3a 22 45 98 3c b3 5f 33 3a
       -0.012825743 0.00071808975 0.018587653 0.00068425684
0000f0 09 b9 0c bc 86 6a 39 bd 7c d1 ac bc e8 fa 88 3c
       -0.008589038 -0.045267604 -0.021095984 0.016721204
000100 a6 2f b1 3c 0d 03 30 3d e9 1b 96 bb af d1 d0 3c
       0.021629166 0.04297166 -0.004580964 0.02549061
000110 f6 c7 35 bf db 90 0a bf e5 d1 c9 39 82 47 9a 3f
       -0.7100824 -0.5412728 0.0003849409 1.2053072
000120 1d fa 53 bb 01 c7 a8 bb d1 eb f1 3f e0 90 d1 be
       -0.0032345124 -0.0051506762 1.890009 -0.40930843
000130 b4 2e 65 3c 01 2a b5 bc 20 03 d9 bc 40 13 82 bb
       0.013988186 -0.022114756 -0.026490748 -0.00396958
000140 9f 2f d6 bc 6d 26 39 bc 75 c4 7a bc 27 8d 00 3d
       -0.026145754 -0.011300665 -0.015305628 0.031384613
000150 9b 67 94 3c de 09 a0 3c 3b 7f d5 b9 63 19 44 bc
       0.01811581 0.019535955 -0.0004072132 -0.011968943
000160 4e 63 b5 3f 9f fe 4e ba fd d0 46 bc b9 b5 4f bc
       1.417093 -0.0007896218 -0.012134788 -0.012677603
000170 24 3b fc 3c c4 03 9b bc a9 79 36 bb 51 36 fc bc
       0.03078992 -0.018922694 -0.0027843511 -0.030787619
000180 c7 59 d9 bc c6 5c a7 3c 11 c8 10 3c 0e 9d be bb
       -0.026532067 0.02042998 0.008836762 -0.005817062
000190 72 d5 13 3c 55 02 57 3c a7 94 80 3f 49 e2 69 3c
       0.009023057 0.013123115 1.0045365 0.014275142
0001a0 7d 91 3f bc 39 17 39 bb 6c 2f 9d 3f ec 57 2a bc
       -0.011692402 -0.0028242602 1.2280097 -0.010396939
0001b0 ad 8a 27 3f 8c a3 86 3c 15 bf 1f 3d 3c 68 22 bc
       0.6544598 0.016435407 0.03900059 -0.009912547
0001c0 22 5e 05 bc 99 d3 1c 3d ae d5 98 3f 84 fa 56 3d
       -0.008140119 0.038287733 1.194021 0.052485004
0001d0 be c2 0d 3d 8e aa 87 bc a2 57 6a bb f5 5d f4 bc
       0.03460955 -0.016560819 -0.00357578 -0.029829958
0001e0 ea a5 55 bb f3 27 54 bf 2d 0f d0 3a a0 3d 56 3d
       -0.0032600113 -0.8287346 0.0015873663 0.052304864
0001f0 c0 c3 ed bb db d7 fd 3b 04 fb a0 bc f1 a8 ef 3e
       -0.0072560012 0.0077466792 -0.019650944 0.4680858
000200 d0 cd b5 bb 74 c1 fe bb 12 39 2c bc 60 bc 9f bf
       -0.0055482164 -0.0077745263 -0.0105116535 -1.2479362
000210 29 6d a0 bc fd 57 d2 bb e5 24 d5 3c 23 64 20 bd
       -0.019583302 -0.0064191804 0.02601857 -0.039157998
000220 f1 ef 14 3c b3 a3 96 bf 05 a0 d9 be 86 00 7c 3e
       0.00909041 -1.1768707 -0.42504898 0.24609575
000230 98 d8 3b 3c c8 a5 86 3c d6 b7 0a bc 59 c1 e3 be
       0.011465214 0.016436473 -0.008466681 -0.4448345
000240 ec 4d 98 bc df 1d cd 3f 39 a8 63 3f ae 0b 00 3d
       -0.018591844 1.6024741 0.8892856 0.03126114
000250 53 90 2c 3c ab 14 0b 3e 24 2a 5a 3d 53 c1 6e bb
       0.010532456 0.13582103 0.053262845 -0.0036431148
000260 1f 77 52 bb 23 5f 88 3f 05 71 96 3d 5b 96 f6 3c
       -0.0032114459 1.0654033 0.073457755 0.030100992
000270 e6 7b f3 be ba 5d 73 bb d5 0f 28 3a ba f7 16 40
       -0.47555465 -0.0037134723 0.00064110506 2.35887
000280 3f d3 16 3f 93 95 04 bf 22 8c f0 ba ea 47 02 3f
       0.58916086 -0.5179073 -0.001835231 0.5089098
000290 8e 10 e0 3c 22 b3 f8 3b b9 17 51 bc 29 6d 99 bf
       0.027351644 0.0075897137 -0.012762004 -1.1986438
0002a0 1c ca 04 3d 96 ee 42 be 4d 8a 1d bd 8d 0a db bb
       0.03241931 -0.19036326 -0.038461972 -0.0066846074
0002b0 63 b5 e3 3b e0 5d 92 bd a5 c7 10 bd 98 92 41 bd
       0.006949113 -0.071468115 -0.035346646 -0.047258943
0002c0 b4 5d 34 3d c9 6f 0f bd e6 f3 30 bd 78 7d 83 3f
       0.044034675 -0.035018716 -0.04320135 1.0272665
0002d0 ae 3e 04 3c 39 f6 04 c0 0c 40 fc 3e 9c 62 d8 3b
       0.008071585 -2.0775282 0.49267614 0.006603552
0002e0 45 d1 76 3a 6e f4 a2 bc 50 58 51 bc 51 c9 6a bb
       0.0009415339 -0.019891944 -0.012777403 -0.003582556
0002f0 1d aa e7 bc a7 cb 82 bc d4 d7 ae bc ab a2 5a 3c
       -0.028279359 -0.01596625 -0.02134315 0.013344447
000300 63 25 6b bd 98 50 ad bc 71 f9 ab 3c c8 e5 c1 3b
       -0.0574087 -0.021156594 0.020992966 0.0059172846
000310 26 3d 9d 3f c8 4f 79 3f 41 9f 52 bb 7f e0 f7 3f
       1.2284286 0.9738736 -0.003213838 1.9365386
000320 97 95 fb 3b c2 bc 5b 3b a7 ff b3 3f e6 84 80 3f
       0.0076777446 0.0033529256 1.4062394 1.0040557
000330 a9 27 8f bc d8 a3 b4 bc f8 85 1d 3b 9b 9d 96 bb
       -0.017474966 -0.022050783 0.002403615 -0.0045964248
000340 81 86 98 bc d6 90 2f bc 39 f2 0f 3a 79 5b c8 bc
       -0.018618824 -0.010715684 0.0005491111 -0.02445768
000350 a6 f3 b3 bd 63 97 69 bc 40 ec bc bb 5b d3 ef 3b
       -0.087867066 -0.014257285 -0.005765468 0.0073188967
000360 fb 3a 71 3f 98 d6 c7 3c 9a 5b 43 3d 0b ea 4d bc
       0.9423062 0.024394318 0.04769478 -0.012568007
000370 5b e7 db bc 1e 39 18 bd 62 bc c8 3b a1 03 d9 bd
       -0.026843717 -0.037163846 0.0061259726 -0.10596395
000380 4c 1f d9 bc 5c b9 be 3c e1 22 f1 3b 61 f9 1e bc
       -0.026504181 0.023281746 0.007358894 -0.009703011
000390 87 24 7f bc 93 3e ed ba 8b 33 08 bf 75 ce 90 3c
       -0.015572674 -0.0018100314 -0.5320365 0.017676571
0003a0 7c 7a e3 3c 29 80 8f bc 26 db be 3f 0c df 96 3b
       0.027768366 -0.017517166 1.4910629 0.004604226
0003b0 f4 3d 1b 3f 7c 87 f2 bb 33 8c cf bc b6 8b 9c 3a
       0.6064141 -0.007401405 -0.025335407 0.0011943493
0003c0 be 60 1d bc 04 09 77 bc 08 26 5e bc 28 ee 74 bd
       -0.009605585 -0.015077833 -0.013558872 -0.059797436
0003d0 f6 db 8f bd ad 5f dd bc 35 45 fc 3b cd 63 dc bc
       -0.07024376 -0.02702316 0.00769868 -0.026903057
0003e0 66 bc 4b ba 35 38 1e c0 49 fd 5e 3b 24 6c 0c bc
       -0.0007771909 -2.4721806 0.0034025481 -0.008570705
0003f0 1d d1 ab bc fa a1 f3 bc 19 5b 3d bc 5c d5 c8 bd
       -0.020973736 -0.029740322 -0.011557364 -0.0980632

fc3.bias f4 [2]
000000 72 53 15 3c f4 66 4f 3b
       0.009114133 0.0031647058
